…
USE_OPENMP=ON, USE_ROCM=OFF, USE_ROCM_KERNEL_ASSERT=OFF, 

TorchVision: 0.19.1
OpenCV: 4.10.0
MMCV: 1.6.2
MMCV Compiler: n/a
MMCV CUDA Compiler: n/a
------------------------------------------------------------

2025-02-02 19:35:08,528 - cloud_retrieval - INFO - ====================================================================================================
Layer (type:depth-idx)                             Output Shape              Param #
====================================================================================================
DataParallel                                       [128, 2, 20, 20]          --
├─CAM: 1-1                                         [64, 2, 20, 20]           468,192
├─CAM: 1-4                                         --                        (recursive)
│    └─DoubleConv: 2-1                             [64, 32, 20, 20]          9,920
│    └─DoubleConv: 2-9                             --                        (recursive)
│    │    └─Sequential: 3-1                        [64, 32, 20, 20]          9,920
│    │    └─Sequential: 3-8                        --                        (recursive)
├─CAM: 1-3                                         [64, 2, 20, 20]           --
├─CAM: 1-4                                         --                        (recursive)
│    └─DoubleConv: 2-3                             [64, 32, 20, 20]          --
│    └─DoubleConv: 2-9                             --                        (recursive)
│    │    └─Sequential: 3-3                        [64, 32, 20, 20]          --
│    │    └─Sequential: 3-8                        --                        (recursive)
│    └─CBAM: 2-5                                   [64, 32, 20, 20]          --
│    └─CBAM: 2-11                                  --                        (recursive)
│    │    └─ChannelGate: 3-5                       [64, 32, 20, 20]          --
│    └─DoubleConv: 2-9                             --                        (recursive)
│    │    └─Sequential: 3-8                        --                        (recursive)
│    └─CBAM: 2-11                                  --                        (recursive)
│    │    └─ChannelGate: 3-10                      --                        (recursive)
│    └─DoubleConv: 2-9                             --                        (recursive)
│    │    └─Sequential: 3-8                        --                        (recursive)
│    └─CBAM: 2-10                                  [64, 32, 20, 20]          162
│    └─CBAM: 2-11                                  --                        (recursive)
│    │    └─ChannelGate: 3-9                       [64, 32, 20, 20]          162
│    │    └─ChannelGate: 3-10                      --                        (recursive)
│    └─Down: 2-12                                  [64, 64, 10, 10]          --
│    └─Down: 2-18                                  --                        (recursive)
│    │    └─Sequential: 3-11                       [64, 64, 10, 10]          --
│    │    └─Sequential: 3-16                       --                        (recursive)
│    └─Down: 2-14                                  [64, 64, 10, 10]          55,552
│    └─Down: 2-18                                  --                        (recursive)
│    │    └─Sequential: 3-13                       [64, 64, 10, 10]          55,552
│    │    └─Sequential: 3-16                       --                        (recursive)
│    └─CBAM: 2-16                                  [64, 64, 10, 10]          --
│    └─CBAM: 2-24                                  --                        (recursive)
│    │    └─ChannelGate: 3-15                      [64, 64, 10, 10]          --
│    └─Down: 2-18                                  --                        (recursive)
│    │    └─Sequential: 3-16                       --                        (recursive)
│    └─CBAM: 2-24                                  --                        (recursive)
│    │    └─ChannelGate: 3-22                      --                        (recursive)
│    └─CBAM: 2-20                                  [64, 64, 10, 10]          580
│    └─CBAM: 2-24                                  --                        (recursive)
│    │    └─ChannelGate: 3-18                      [64, 64, 10, 10]          580
│    │    └─ChannelGate: 3-22                      --                        (recursive)
│    └─Down: 2-22                                  [64, 128, 5, 5]           --
│    └─Down: 2-30                                  --                        (recursive)
│    │    └─Sequential: 3-20                       [64, 128, 5, 5]           --
│    │    └─Sequential: 3-27                       --                        (recursive)
│    └─CBAM: 2-24                                  --                        (recursive)
│    │    └─ChannelGate: 3-22                      --                        (recursive)
│    └─Down: 2-30                                  --                        (recursive)
│    │    └─Sequential: 3-27                       --                        (recursive)
│    └─Down: 2-26                                  [64, 128, 5, 5]           221,696
│    └─Down: 2-30                                  --                        (recursive)
│    │    └─Sequential: 3-24                       [64, 128, 5, 5]           221,696
│    │    └─Sequential: 3-27                       --                        (recursive)
│    └─Up: 2-28                                    [64, 64, 10, 10]          --
│    └─Up: 2-35                                    --                        (recursive)
│    │    └─ConvTranspose2d: 3-26                  [64, 64, 10, 10]          --
│    └─Down: 2-30                                  --                        (recursive)
│    │    └─Sequential: 3-27                       --                        (recursive)
│    └─Up: 2-31                                    [64, 64, 10, 10]          143,680
│    └─Up: 2-35                                    --                        (recursive)
│    │    └─ConvTranspose2d: 3-28                  [64, 64, 10, 10]          32,832
│    │    └─Dropout: 3-29                          [64, 64, 10, 10]          --
│    │    └─Dropout: 3-30                          [64, 64, 10, 10]          --
│    │    └─DoubleConv: 3-31                       [64, 64, 10, 10]          110,848
│    │    └─DoubleConv: 3-39                       --                        (recursive)
│    │    └─DoubleConv: 3-33                       [64, 64, 10, 10]          --
│    │    └─DoubleConv: 3-39                       --                        (recursive)
│    └─Up: 2-33                                    [64, 32, 20, 20]          36,000
│    └─Up: 2-40                                    --                        (recursive)
│    │    └─ConvTranspose2d: 3-35                  [64, 32, 20, 20]          8,224
│    │    └─Dropout: 3-36                          [64, 32, 20, 20]          --
│    │    └─DoubleConv: 3-37                       [64, 32, 20, 20]          27,776
│    │    └─DoubleConv: 3-46                       --                        (recursive)
│    └─Up: 2-35                                    --                        (recursive)
│    │    └─DoubleConv: 3-39                       --                        (recursive)
│    └─Up: 2-36                                    [64, 32, 20, 20]          --
│    └─Up: 2-40                                    --                        (recursive)
│    │    └─ConvTranspose2d: 3-40                  [64, 32, 20, 20]          --
│    │    └─Dropout: 3-41                          [64, 32, 20, 20]          --
│    │    └─DoubleConv: 3-42                       [64, 32, 20, 20]          --
│    │    └─DoubleConv: 3-46                       --                        (recursive)
│    └─DoubleConv: 2-38                            [64, 1, 20, 20]           301
│    └─DoubleConv: 2-42                            --                        (recursive)
│    │    └─Sequential: 3-44                       [64, 1, 20, 20]           301
│    │    └─Sequential: 3-48                       --                        (recursive)
│    └─Up: 2-40                                    --                        (recursive)
│    │    └─DoubleConv: 3-46                       --                        (recursive)
│    └─DoubleConv: 2-41                            [64, 1, 20, 20]           --
│    └─DoubleConv: 2-42                            --                        (recursive)
│    │    └─Sequential: 3-47                       [64, 1, 20, 20]           --
│    │    └─Sequential: 3-48                       --                        (recursive)
│    └─DoubleConv: 2-43                            [64, 1, 20, 20]           --
│    └─DoubleConv: 2-46                            --                        (recursive)
│    │    └─Sequential: 3-49                       [64, 1, 20, 20]           --
│    │    └─Sequential: 3-52                       --                        (recursive)
│    └─DoubleConv: 2-45                            [64, 1, 20, 20]           301
│    └─DoubleConv: 2-46                            --                        (recursive)
│    │    └─Sequential: 3-51                       [64, 1, 20, 20]           301
│    │    └─Sequential: 3-52                       --                        (recursive)
====================================================================================================
Total params: 2,525,574
Trainable params: 2,525,574
Non-trainable params: 0
Total mult-adds (Units.GIGABYTES): 2.81
====================================================================================================
…
