…
USE_OPENMP=ON, USE_ROCM=OFF, USE_ROCM_KERNEL_ASSERT=OFF, 

TorchVision: 0.19.1
OpenCV: 4.10.0
MMCV: 1.6.2
MMCV Compiler: n/a
MMCV CUDA Compiler: n/a
------------------------------------------------------------

2025-02-02 19:35:51,974 - cloud_retrieval - INFO - ====================================================================================================
Layer (type:depth-idx)                             Output Shape              Param #
====================================================================================================
DataParallel                                       [128, 2, 20, 20]          --
├─CAM: 1-1                                         [64, 2, 20, 20]           468,192
├─CAM: 1-4                                         --                        (recursive)
│    └─DoubleConv: 2-1                             [64, 32, 20, 20]          9,920
│    └─DoubleConv: 2-7                             --                        (recursive)
│    │    └─Sequential: 3-1                        [64, 32, 20, 20]          9,920
│    │    └─Sequential: 3-6                        --                        (recursive)
├─CAM: 1-3                                         [64, 2, 20, 20]           --
├─CAM: 1-4                                         --                        (recursive)
│    └─DoubleConv: 2-3                             [64, 32, 20, 20]          --
│    └─DoubleConv: 2-7                             --                        (recursive)
│    │    └─Sequential: 3-3                        [64, 32, 20, 20]          --
│    │    └─Sequential: 3-6                        --                        (recursive)
│    └─CBAM: 2-5                                   [64, 32, 20, 20]          --
│    └─CBAM: 2-10                                  --                        (recursive)
│    │    └─ChannelGate: 3-5                       [64, 32, 20, 20]          --
│    └─DoubleConv: 2-7                             --                        (recursive)
│    │    └─Sequential: 3-6                        --                        (recursive)
│    └─CBAM: 2-10                                  --                        (recursive)
│    │    └─ChannelGate: 3-9                       --                        (recursive)
│    └─CBAM: 2-9                                   [64, 32, 20, 20]          162
│    └─CBAM: 2-10                                  --                        (recursive)
│    │    └─ChannelGate: 3-8                       [64, 32, 20, 20]          162
│    │    └─ChannelGate: 3-9                       --                        (recursive)
│    └─Down: 2-11                                  [64, 64, 10, 10]          --
│    └─Down: 2-14                                  --                        (recursive)
│    │    └─Sequential: 3-10                       [64, 64, 10, 10]          --
│    │    └─Sequential: 3-13                       --                        (recursive)
│    └─Down: 2-13                                  [64, 64, 10, 10]          55,552
│    └─Down: 2-14                                  --                        (recursive)
│    │    └─Sequential: 3-12                       [64, 64, 10, 10]          55,552
│    │    └─Sequential: 3-13                       --                        (recursive)
│    └─CBAM: 2-15                                  [64, 64, 10, 10]          --
│    └─CBAM: 2-18                                  --                        (recursive)
│    │    └─ChannelGate: 3-14                      [64, 64, 10, 10]          --
│    └─CBAM: 2-17                                  [64, 64, 10, 10]          580
│    └─CBAM: 2-18                                  --                        (recursive)
│    │    └─ChannelGate: 3-15                      [64, 64, 10, 10]          580
│    │    └─ChannelGate: 3-16                      --                        580
│    └─Down: 2-19                                  [64, 128, 5, 5]           --
│    └─Down: 2-25                                  --                        (recursive)
│    │    └─Sequential: 3-17                       [64, 128, 5, 5]           --
│    │    └─Sequential: 3-22                       --                        (recursive)
│    └─Down: 2-21                                  [64, 128, 5, 5]           221,696
│    └─Down: 2-25                                  --                        (recursive)
│    │    └─Sequential: 3-19                       [64, 128, 5, 5]           221,696
│    │    └─Sequential: 3-22                       --                        (recursive)
│    └─Up: 2-23                                    [64, 64, 10, 10]          --
│    └─Up: 2-30                                    --                        (recursive)
│    │    └─ConvTranspose2d: 3-21                  [64, 64, 10, 10]          --
│    └─Down: 2-25                                  --                        (recursive)
│    │    └─Sequential: 3-22                       --                        (recursive)
│    └─Up: 2-26                                    [64, 64, 10, 10]          143,680
│    └─Up: 2-30                                    --                        (recursive)
│    │    └─ConvTranspose2d: 3-23                  [64, 64, 10, 10]          32,832
│    │    └─Dropout: 3-24                          [64, 64, 10, 10]          --
│    │    └─Dropout: 3-25                          [64, 64, 10, 10]          --
│    │    └─DoubleConv: 3-26                       [64, 64, 10, 10]          110,848
│    │    └─DoubleConv: 3-34                       --                        (recursive)
│    │    └─DoubleConv: 3-28                       [64, 64, 10, 10]          --
│    │    └─DoubleConv: 3-34                       --                        (recursive)
│    └─Up: 2-28                                    [64, 32, 20, 20]          36,000
│    └─Up: 2-35                                    --                        (recursive)
│    │    └─ConvTranspose2d: 3-30                  [64, 32, 20, 20]          8,224
│    │    └─Dropout: 3-31                          [64, 32, 20, 20]          --
│    │    └─DoubleConv: 3-32                       [64, 32, 20, 20]          27,776
│    │    └─DoubleConv: 3-41                       --                        (recursive)
│    └─Up: 2-30                                    --                        (recursive)
│    │    └─DoubleConv: 3-34                       --                        (recursive)
│    └─Up: 2-31                                    [64, 32, 20, 20]          --
│    └─Up: 2-35                                    --                        (recursive)
│    │    └─ConvTranspose2d: 3-35                  [64, 32, 20, 20]          --
│    │    └─Dropout: 3-36                          [64, 32, 20, 20]          --
│    │    └─DoubleConv: 3-37                       [64, 32, 20, 20]          --
│    │    └─DoubleConv: 3-41                       --                        (recursive)
│    └─DoubleConv: 2-33                            [64, 1, 20, 20]           301
│    └─DoubleConv: 2-37                            --                        (recursive)
│    │    └─Sequential: 3-39                       [64, 1, 20, 20]           301
│    │    └─Sequential: 3-43                       --                        (recursive)
│    └─Up: 2-35                                    --                        (recursive)
│    │    └─DoubleConv: 3-41                       --                        (recursive)
│    └─DoubleConv: 2-36                            [64, 1, 20, 20]           --
│    └─DoubleConv: 2-37                            --                        (recursive)
│    │    └─Sequential: 3-42                       [64, 1, 20, 20]           --
│    │    └─Sequential: 3-43                       --                        (recursive)
│    └─DoubleConv: 2-38                            [64, 1, 20, 20]           301
│    └─DoubleConv: 2-41                            --                        (recursive)
│    │    └─Sequential: 3-44                       [64, 1, 20, 20]           301
│    │    └─Sequential: 3-47                       --                        (recursive)
│    └─DoubleConv: 2-40                            [64, 1, 20, 20]           --
│    └─DoubleConv: 2-41                            --                        (recursive)
│    │    └─Sequential: 3-46                       [64, 1, 20, 20]           --
│    │    └─Sequential: 3-47                       --                        (recursive)
====================================================================================================
Total params: 2,525,574
Trainable params: 2,525,574
Non-trainable params: 0
Total mult-adds (Units.GIGABYTES): 2.81
====================================================================================================
…
