…
USE_OPENMP=ON, USE_ROCM=OFF, USE_ROCM_KERNEL_ASSERT=OFF, 

TorchVision: 0.19.1
OpenCV: 4.10.0
MMCV: 1.6.2
MMCV Compiler: n/a
MMCV CUDA Compiler: n/a
------------------------------------------------------------

2025-02-02 19:38:55,015 - cloud_retrieval - INFO - ====================================================================================================
Layer (type:depth-idx)                             Output Shape              Param #
====================================================================================================
DataParallel                                       [128, 2, 20, 20]          --
├─CAM: 1-1                                         [128, 2, 20, 20]          --
│    └─DoubleConv: 2-1                             [128, 32, 20, 20]         --
│    │    └─Sequential: 3-1                        [128, 32, 20, 20]         9,920
│    └─CBAM: 2-2                                   [128, 32, 20, 20]         --
│    │    └─ChannelGate: 3-2                       [128, 32, 20, 20]         162
│    └─Down: 2-3                                   [128, 64, 10, 10]         --
│    │    └─Sequential: 3-3                        [128, 64, 10, 10]         55,552
│    └─CBAM: 2-4                                   [128, 64, 10, 10]         --
│    │    └─ChannelGate: 3-4                       [128, 64, 10, 10]         580
│    └─Down: 2-5                                   [128, 128, 5, 5]          --
│    │    └─Sequential: 3-5                        [128, 128, 5, 5]          221,696
│    └─Up: 2-6                                     [128, 64, 10, 10]         --
│    │    └─ConvTranspose2d: 3-6                   [128, 64, 10, 10]         32,832
│    │    └─Dropout: 3-7                           [128, 64, 10, 10]         --
│    │    └─DoubleConv: 3-8                        [128, 64, 10, 10]         110,848
│    └─Up: 2-7                                     [128, 32, 20, 20]         --
│    │    └─ConvTranspose2d: 3-9                   [128, 32, 20, 20]         8,224
│    │    └─Dropout: 3-10                          [128, 32, 20, 20]         --
│    │    └─DoubleConv: 3-11                       [128, 32, 20, 20]         27,776
│    └─DoubleConv: 2-8                             [128, 1, 20, 20]          --
│    │    └─Sequential: 3-12                       [128, 1, 20, 20]          301
│    └─DoubleConv: 2-9                             [128, 1, 20, 20]          --
│    │    └─Sequential: 3-13                       [128, 1, 20, 20]          301
====================================================================================================
Total params: 468,192
Trainable params: 468,192
Non-trainable params: 0
Total mult-adds (Units.GIGABYTES): 5.62
====================================================================================================
Input size (MB): 0.41
Forward/backward pass size (MB): 193.54
Params size (MB): 1.87
Estimated Total Size (MB): 195.82
…
