…
USE_OPENMP=ON, USE_ROCM=OFF, USE_ROCM_KERNEL_ASSERT=OFF, 

TorchVision: 0.19.1
OpenCV: 4.10.0
MMCV: 1.6.2
MMCV Compiler: n/a
MMCV CUDA Compiler: n/a
------------------------------------------------------------

2025-02-02 19:29:10,064 - cloud_retrieval - INFO - ====================================================================================================
Layer (type:depth-idx)                             Output Shape              Param #
====================================================================================================
DataParallel                                       [128, 2, 20, 20]          --
├─CAM: 1-1                                         [32, 2, 20, 20]           468,192
├─CAM: 1-8                                         --                        (recursive)
│    └─DoubleConv: 2-1                             [32, 32, 20, 20]          9,920
│    └─DoubleConv: 2-15                            --                        (recursive)
│    │    └─Sequential: 3-1                        [32, 32, 20, 20]          9,920
│    │    └─Sequential: 3-12                       --                        (recursive)
├─CAM: 1-3                                         [32, 2, 20, 20]           --
├─CAM: 1-8                                         --                        (recursive)
│    └─DoubleConv: 2-3                             [32, 32, 20, 20]          --
│    └─DoubleConv: 2-15                            --                        (recursive)
│    │    └─Sequential: 3-3                        [32, 32, 20, 20]          --
│    │    └─Sequential: 3-12                       --                        (recursive)
├─CAM: 1-5                                         [32, 2, 20, 20]           --
├─CAM: 1-8                                         --                        (recursive)
│    └─DoubleConv: 2-5                             [32, 32, 20, 20]          --
│    └─DoubleConv: 2-15                            --                        (recursive)
│    │    └─Sequential: 3-5                        [32, 32, 20, 20]          --
│    │    └─Sequential: 3-12                       --                        (recursive)
├─CAM: 1-7                                         [32, 2, 20, 20]           --
├─CAM: 1-8                                         --                        (recursive)
│    └─DoubleConv: 2-7                             [32, 32, 20, 20]          --
│    └─DoubleConv: 2-15                            --                        (recursive)
│    │    └─Sequential: 3-7                        [32, 32, 20, 20]          --
│    │    └─Sequential: 3-12                       --                        (recursive)
│    └─CBAM: 2-9                                   [32, 32, 20, 20]          --
│    └─CBAM: 2-17                                  --                        (recursive)
│    │    └─ChannelGate: 3-9                       [32, 32, 20, 20]          --
│    └─CBAM: 2-11                                  [32, 32, 20, 20]          --
│    └─CBAM: 2-17                                  --                        (recursive)
│    │    └─ChannelGate: 3-10                      [32, 32, 20, 20]          --
│    └─CBAM: 2-13                                  [32, 32, 20, 20]          162
│    └─CBAM: 2-17                                  --                        (recursive)
│    │    └─ChannelGate: 3-11                      [32, 32, 20, 20]          162
│    └─DoubleConv: 2-15                            --                        (recursive)
│    │    └─Sequential: 3-12                       --                        (recursive)
│    └─CBAM: 2-16                                  [32, 32, 20, 20]          --
│    └─CBAM: 2-17                                  --                        (recursive)
│    │    └─ChannelGate: 3-13                      [32, 32, 20, 20]          --
│    │    └─ChannelGate: 3-14                      --                        162
│    └─Down: 2-18                                  [32, 64, 10, 10]          --
│    └─Down: 2-25                                  --                        (recursive)
│    │    └─Sequential: 3-15                       [32, 64, 10, 10]          --
│    │    └─Sequential: 3-22                       --                        (recursive)
│    └─Down: 2-20                                  [32, 64, 10, 10]          --
│    └─Down: 2-25                                  --                        (recursive)
│    │    └─Sequential: 3-17                       [32, 64, 10, 10]          --
│    │    └─Sequential: 3-22                       --                        (recursive)
│    └─Down: 2-22                                  [32, 64, 10, 10]          --
│    └─Down: 2-25                                  --                        (recursive)
│    │    └─Sequential: 3-19                       [32, 64, 10, 10]          --
│    │    └─Sequential: 3-22                       --                        (recursive)
│    └─Down: 2-24                                  [32, 64, 10, 10]          55,552
│    └─Down: 2-25                                  --                        (recursive)
│    │    └─Sequential: 3-21                       [32, 64, 10, 10]          55,552
│    │    └─Sequential: 3-22                       --                        (recursive)
│    └─CBAM: 2-26                                  [32, 64, 10, 10]          --
│    └─CBAM: 2-33                                  --                        (recursive)
│    │    └─ChannelGate: 3-23                      [32, 64, 10, 10]          --
│    │    └─ChannelGate: 3-30                      --                        (recursive)
│    └─CBAM: 2-28                                  [32, 64, 10, 10]          --
│    └─CBAM: 2-33                                  --                        (recursive)
│    │    └─ChannelGate: 3-25                      [32, 64, 10, 10]          --
│    │    └─ChannelGate: 3-30                      --                        (recursive)
│    └─CBAM: 2-30                                  [32, 64, 10, 10]          580
│    └─CBAM: 2-33                                  --                        (recursive)
│    │    └─ChannelGate: 3-27                      [32, 64, 10, 10]          580
│    │    └─ChannelGate: 3-30                      --                        (recursive)
│    └─CBAM: 2-32                                  [32, 64, 10, 10]          --
│    └─CBAM: 2-33                                  --                        (recursive)
│    │    └─ChannelGate: 3-29                      [32, 64, 10, 10]          --
│    │    └─ChannelGate: 3-30                      --                        (recursive)
│    └─Down: 2-34                                  [32, 128, 5, 5]           --
│    └─Down: 2-47                                  --                        (recursive)
│    │    └─Sequential: 3-31                       [32, 128, 5, 5]           --
│    │    └─Sequential: 3-42                       --                        (recursive)
│    └─Down: 2-36                                  [32, 128, 5, 5]           --
│    └─Down: 2-47                                  --                        (recursive)
│    │    └─Sequential: 3-33                       [32, 128, 5, 5]           --
│    │    └─Sequential: 3-42                       --                        (recursive)
│    └─Down: 2-38                                  [32, 128, 5, 5]           221,696
│    └─Down: 2-47                                  --                        (recursive)
│    │    └─Sequential: 3-35                       [32, 128, 5, 5]           221,696
│    │    └─Sequential: 3-42                       --                        (recursive)
│    └─Down: 2-40                                  [32, 128, 5, 5]           --
│    └─Down: 2-47                                  --                        (recursive)
│    │    └─Sequential: 3-37                       [32, 128, 5, 5]           --
│    │    └─Sequential: 3-42                       --                        (recursive)
│    └─Up: 2-42                                    [32, 64, 10, 10]          --
│    └─Up: 2-54                                    --                        (recursive)
│    │    └─ConvTranspose2d: 3-39                  [32, 64, 10, 10]          --
│    └─Down: 2-47                                  --                        (recursive)
│    │    └─Sequential: 3-42                       --                        (recursive)
│    └─Up: 2-45                                    [32, 64, 10, 10]          --
│    └─Up: 2-54                                    --                        (recursive)
│    │    └─ConvTranspose2d: 3-41                  [32, 64, 10, 10]          --
│    └─Down: 2-47                                  --                        (recursive)
│    │    └─Sequential: 3-42                       --                        (recursive)
│    └─Up: 2-48                                    [32, 64, 10, 10]          143,680
│    └─Up: 2-54                                    --                        (recursive)
│    │    └─ConvTranspose2d: 3-43                  [32, 64, 10, 10]          32,832
│    └─Up: 2-50                                    [32, 64, 10, 10]          --
│    └─Up: 2-54                                    --                        (recursive)
│    │    └─ConvTranspose2d: 3-44                  [32, 64, 10, 10]          --
│    │    └─Dropout: 3-45                          [32, 64, 10, 10]          --
│    │    └─Dropout: 3-46                          [32, 64, 10, 10]          --
│    │    └─Dropout: 3-47                          [32, 64, 10, 10]          --
│    │    └─Dropout: 3-48                          [32, 64, 10, 10]          --
│    │    └─DoubleConv: 3-49                       [32, 64, 10, 10]          110,848
│    │    └─DoubleConv: 3-61                       --                        (recursive)
│    │    └─DoubleConv: 3-51                       [32, 64, 10, 10]          --
│    │    └─DoubleConv: 3-61                       --                        (recursive)
│    │    └─DoubleConv: 3-53                       [32, 64, 10, 10]          --
│    │    └─DoubleConv: 3-61                       --                        (recursive)
│    │    └─DoubleConv: 3-55                       [32, 64, 10, 10]          --
│    │    └─DoubleConv: 3-61                       --                        (recursive)
│    └─Up: 2-52                                    [32, 32, 20, 20]          36,000
│    └─Up: 2-68                                    --                        (recursive)
│    │    └─ConvTranspose2d: 3-57                  [32, 32, 20, 20]          8,224
│    │    └─Dropout: 3-58                          [32, 32, 20, 20]          --
│    │    └─DoubleConv: 3-59                       [32, 32, 20, 20]          27,776
│    │    └─DoubleConv: 3-83                       --                        (recursive)
│    └─Up: 2-54                                    --                        (recursive)
│    │    └─DoubleConv: 3-61                       --                        (recursive)
│    └─Up: 2-55                                    [32, 32, 20, 20]          --
│    └─Up: 2-68                                    --                        (recursive)
│    │    └─ConvTranspose2d: 3-62                  [32, 32, 20, 20]          --
│    └─Up: 2-57                                    [32, 32, 20, 20]          --
│    └─Up: 2-68                                    --                        (recursive)
│    │    └─ConvTranspose2d: 3-63                  [32, 32, 20, 20]          --
│    │    └─DoubleConv: 3-83                       --                        (recursive)
│    │    └─Dropout: 3-65                          [32, 32, 20, 20]          --
│    │    └─Dropout: 3-66                          [32, 32, 20, 20]          --
│    │    └─DoubleConv: 3-83                       --                        (recursive)
│    │    └─DoubleConv: 3-68                       [32, 32, 20, 20]          --
│    │    └─DoubleConv: 3-83                       --                        (recursive)
│    │    └─DoubleConv: 3-70                       [32, 32, 20, 20]          --
│    │    └─DoubleConv: 3-83                       --                        (recursive)
│    └─Up: 2-59                                    [32, 32, 20, 20]          --
│    └─Up: 2-68                                    --                        (recursive)
│    │    └─ConvTranspose2d: 3-72                  [32, 32, 20, 20]          --
│    │    └─DoubleConv: 3-83                       --                        (recursive)
│    │    └─Dropout: 3-74                          [32, 32, 20, 20]          --
│    └─DoubleConv: 2-61                            [32, 1, 20, 20]           301
│    └─DoubleConv: 2-73                            --                        (recursive)
│    │    └─Sequential: 3-75                       [32, 1, 20, 20]           301
│    │    └─Sequential: 3-88                       --                        (recursive)
│    └─Up: 2-68                                    --                        (recursive)
│    │    └─DoubleConv: 3-77                       [32, 32, 20, 20]          --
│    │    └─DoubleConv: 3-83                       --                        (recursive)
│    └─DoubleConv: 2-64                            [32, 1, 20, 20]           --
│    └─DoubleConv: 2-73                            --                        (recursive)
│    │    └─Sequential: 3-79                       [32, 1, 20, 20]           --
│    │    └─Sequential: 3-88                       --                        (recursive)
│    └─DoubleConv: 2-66                            [32, 1, 20, 20]           --
│    └─DoubleConv: 2-73                            --                        (recursive)
│    │    └─Sequential: 3-81                       [32, 1, 20, 20]           --
│    │    └─Sequential: 3-88                       --                        (recursive)
│    └─Up: 2-68                                    --                        (recursive)
│    │    └─DoubleConv: 3-83                       --                        (recursive)
│    └─DoubleConv: 2-69                            [32, 1, 20, 20]           --
│    └─DoubleConv: 2-73                            --                        (recursive)
│    │    └─Sequential: 3-84                       [32, 1, 20, 20]           --
│    │    └─Sequential: 3-88                       --                        (recursive)
│    └─DoubleConv: 2-71                            [32, 1, 20, 20]           --
│    └─DoubleConv: 2-79                            --                        (recursive)
│    │    └─Sequential: 3-86                       [32, 1, 20, 20]           --
│    │    └─Sequential: 3-94                       --                        (recursive)
│    └─DoubleConv: 2-73                            --                        (recursive)
│    │    └─Sequential: 3-88                       --                        (recursive)
│    └─DoubleConv: 2-74                            [32, 1, 20, 20]           --
│    └─DoubleConv: 2-79                            --                        (recursive)
│    │    └─Sequential: 3-89                       [32, 1, 20, 20]           --
│    │    └─Sequential: 3-94                       --                        (recursive)
│    └─DoubleConv: 2-76                            [32, 1, 20, 20]           301
│    └─DoubleConv: 2-79                            --                        (recursive)
│    │    └─Sequential: 3-91                       [32, 1, 20, 20]           301
│    │    └─Sequential: 3-94                       --                        (recursive)
│    └─DoubleConv: 2-78                            [32, 1, 20, 20]           --
│    └─DoubleConv: 2-79                            --                        (recursive)
│    │    └─Sequential: 3-93                       [32, 1, 20, 20]           --
│    │    └─Sequential: 3-94                       --                        (recursive)
====================================================================================================
Total params: 2,525,574
Trainable params: 2,525,574
Non-trainable params: 0
Total mult-adds (Units.GIGABYTES): 1.41
====================================================================================================
…
