…
USE_OPENMP=ON, USE_ROCM=OFF, USE_ROCM_KERNEL_ASSERT=OFF, 

TorchVision: 0.19.1
OpenCV: 4.10.0
MMCV: 1.6.2
MMCV Compiler: n/a
MMCV CUDA Compiler: n/a
------------------------------------------------------------

2025-02-02 19:38:27,824 - cloud_retrieval - INFO - ====================================================================================================
Layer (type:depth-idx)                             Output Shape              Param #
====================================================================================================
DataParallel                                       [128, 2, 20, 20]          --
├─CAM: 1-1                                         [43, 2, 20, 20]           468,192
├─CAM: 1-6                                         --                        (recursive)
│    └─DoubleConv: 2-1                             [43, 32, 20, 20]          9,920
│    └─DoubleConv: 2-11                            --                        (recursive)
│    │    └─Sequential: 3-1                        [43, 32, 20, 20]          9,920
│    │    └─Sequential: 3-9                        --                        (recursive)
├─CAM: 1-3                                         [43, 2, 20, 20]           --
├─CAM: 1-6                                         --                        (recursive)
│    └─DoubleConv: 2-3                             [43, 32, 20, 20]          --
│    └─DoubleConv: 2-11                            --                        (recursive)
│    │    └─Sequential: 3-3                        [43, 32, 20, 20]          --
│    │    └─Sequential: 3-9                        --                        (recursive)
├─CAM: 1-5                                         [42, 2, 20, 20]           --
├─CAM: 1-6                                         --                        (recursive)
│    └─DoubleConv: 2-5                             [42, 32, 20, 20]          --
│    └─DoubleConv: 2-11                            --                        (recursive)
│    │    └─Sequential: 3-5                        [42, 32, 20, 20]          --
│    │    └─Sequential: 3-9                        --                        (recursive)
│    └─CBAM: 2-7                                   [43, 32, 20, 20]          --
│    └─CBAM: 2-13                                  --                        (recursive)
│    │    └─ChannelGate: 3-7                       [43, 32, 20, 20]          --
│    └─CBAM: 2-9                                   [42, 32, 20, 20]          --
│    └─CBAM: 2-13                                  --                        (recursive)
│    │    └─ChannelGate: 3-8                       [42, 32, 20, 20]          --
│    └─DoubleConv: 2-11                            --                        (recursive)
│    │    └─Sequential: 3-9                        --                        (recursive)
│    └─CBAM: 2-12                                  [43, 32, 20, 20]          162
│    └─CBAM: 2-13                                  --                        (recursive)
│    │    └─ChannelGate: 3-10                      [43, 32, 20, 20]          162
│    │    └─ChannelGate: 3-11                      --                        162
│    └─Down: 2-14                                  [42, 64, 10, 10]          --
│    └─Down: 2-19                                  --                        (recursive)
│    │    └─Sequential: 3-12                       [42, 64, 10, 10]          --
│    │    └─Sequential: 3-17                       --                        (recursive)
│    └─Down: 2-16                                  [43, 64, 10, 10]          --
│    └─Down: 2-19                                  --                        (recursive)
│    │    └─Sequential: 3-14                       [43, 64, 10, 10]          --
│    │    └─Sequential: 3-17                       --                        (recursive)
│    └─Down: 2-18                                  [43, 64, 10, 10]          55,552
│    └─Down: 2-19                                  --                        (recursive)
│    │    └─Sequential: 3-16                       [43, 64, 10, 10]          55,552
│    │    └─Sequential: 3-17                       --                        (recursive)
│    └─CBAM: 2-20                                  [42, 64, 10, 10]          --
│    └─CBAM: 2-25                                  --                        (recursive)
│    │    └─ChannelGate: 3-18                      [42, 64, 10, 10]          --
│    └─CBAM: 2-22                                  [43, 64, 10, 10]          --
│    └─CBAM: 2-25                                  --                        (recursive)
│    │    └─ChannelGate: 3-19                      [43, 64, 10, 10]          --
│    │    └─ChannelGate: 3-22                      --                        (recursive)
│    └─CBAM: 2-24                                  [43, 64, 10, 10]          580
│    └─CBAM: 2-25                                  --                        (recursive)
│    │    └─ChannelGate: 3-21                      [43, 64, 10, 10]          580
│    │    └─ChannelGate: 3-22                      --                        (recursive)
│    └─Down: 2-26                                  [42, 128, 5, 5]           --
│    └─Down: 2-34                                  --                        (recursive)
│    │    └─Sequential: 3-23                       [42, 128, 5, 5]           --
│    │    └─Sequential: 3-30                       --                        (recursive)
│    └─Down: 2-28                                  [43, 128, 5, 5]           221,696
│    └─Down: 2-34                                  --                        (recursive)
│    │    └─Sequential: 3-25                       [43, 128, 5, 5]           221,696
│    │    └─Sequential: 3-30                       --                        (recursive)
│    └─Down: 2-30                                  [43, 128, 5, 5]           --
│    └─Down: 2-34                                  --                        (recursive)
│    │    └─Sequential: 3-27                       [43, 128, 5, 5]           --
│    │    └─Sequential: 3-30                       --                        (recursive)
│    └─Up: 2-32                                    [42, 64, 10, 10]          --
│    └─Up: 2-56                                    --                        (recursive)
│    │    └─ConvTranspose2d: 3-29                  [42, 64, 10, 10]          --
│    └─Down: 2-34                                  --                        (recursive)
│    │    └─Sequential: 3-30                       --                        (recursive)
│    └─Up: 2-35                                    [43, 64, 10, 10]          143,680
│    └─Up: 2-56                                    --                        (recursive)
│    │    └─ConvTranspose2d: 3-31                  [43, 64, 10, 10]          32,832
│    └─Up: 2-37                                    [43, 64, 10, 10]          --
│    └─Up: 2-56                                    --                        (recursive)
│    │    └─ConvTranspose2d: 3-32                  [43, 64, 10, 10]          --
│    │    └─Dropout: 3-33                          [43, 64, 10, 10]          --
│    │    └─Dropout: 3-34                          [42, 64, 10, 10]          --
│    │    └─Dropout: 3-35                          [43, 64, 10, 10]          --
│    │    └─DoubleConv: 3-36                       [43, 64, 10, 10]          110,848
│    │    └─DoubleConv: 3-56                       --                        (recursive)
│    └─Up: 2-39                                    [43, 32, 20, 20]          36,000
│    └─Up: 2-62                                    --                        (recursive)
│    │    └─ConvTranspose2d: 3-38                  [43, 32, 20, 20]          8,224
│    └─Up: 2-56                                    --                        (recursive)
│    │    └─DoubleConv: 3-39                       [42, 64, 10, 10]          --
│    │    └─DoubleConv: 3-56                       --                        (recursive)
│    └─Up: 2-62                                    --                        (recursive)
│    │    └─Dropout: 3-41                          [43, 32, 20, 20]          --
│    └─Up: 2-56                                    --                        (recursive)
│    │    └─DoubleConv: 3-42                       [43, 64, 10, 10]          --
│    │    └─DoubleConv: 3-56                       --                        (recursive)
│    └─Up: 2-62                                    --                        (recursive)
│    │    └─DoubleConv: 3-44                       [43, 32, 20, 20]          27,776
│    │    └─DoubleConv: 3-66                       --                        (recursive)
│    └─Up: 2-56                                    --                        (recursive)
│    │    └─DoubleConv: 3-56                       --                        (recursive)
│    └─Up: 2-62                                    --                        (recursive)
│    │    └─DoubleConv: 3-66                       --                        (recursive)
…
│    │    └─DoubleConv: 3-56                       --                        (recursive)
│    └─Up: 2-62                                    --                        (recursive)
│    │    └─DoubleConv: 3-66                       --                        (recursive)
│    └─Up: 2-56                                    --                        (recursive)
│    │    └─DoubleConv: 3-56                       --                        (recursive)
│    └─Up: 2-62                                    --                        (recursive)
│    │    └─DoubleConv: 3-66                       --                        (recursive)
│    └─DoubleConv: 2-51                            [43, 1, 20, 20]           301
│    └─DoubleConv: 2-67                            --                        (recursive)
│    │    └─Sequential: 3-52                       [43, 1, 20, 20]           301
│    │    └─Sequential: 3-71                       --                        (recursive)
│    └─Up: 2-56                                    --                        (recursive)
│    │    └─DoubleConv: 3-56                       --                        (recursive)
│    └─Up: 2-54                                    [42, 32, 20, 20]          --
│    └─Up: 2-62                                    --                        (recursive)
│    │    └─ConvTranspose2d: 3-55                  [42, 32, 20, 20]          --
│    └─Up: 2-56                                    --                        (recursive)
│    │    └─DoubleConv: 3-56                       --                        (recursive)
│    └─Up: 2-62                                    --                        (recursive)
│    │    └─Dropout: 3-57                          [42, 32, 20, 20]          --
│    └─Up: 2-58                                    [43, 32, 20, 20]          --
│    └─Up: 2-62                                    --                        (recursive)
│    │    └─ConvTranspose2d: 3-58                  [43, 32, 20, 20]          --
│    │    └─DoubleConv: 3-59                       [42, 32, 20, 20]          --
│    │    └─DoubleConv: 3-66                       --                        (recursive)
│    │    └─Dropout: 3-61                          [43, 32, 20, 20]          --
│    │    └─DoubleConv: 3-62                       [43, 32, 20, 20]          --
│    │    └─DoubleConv: 3-66                       --                        (recursive)
│    └─DoubleConv: 2-60                            [42, 1, 20, 20]           --
│    └─DoubleConv: 2-67                            --                        (recursive)
│    │    └─Sequential: 3-64                       [42, 1, 20, 20]           --
│    │    └─Sequential: 3-71                       --                        (recursive)
│    └─Up: 2-62                                    --                        (recursive)
│    │    └─DoubleConv: 3-66                       --                        (recursive)
│    └─DoubleConv: 2-63                            [43, 1, 20, 20]           --
│    └─DoubleConv: 2-67                            --                        (recursive)
│    │    └─Sequential: 3-67                       [43, 1, 20, 20]           --
│    │    └─Sequential: 3-71                       --                        (recursive)
│    └─DoubleConv: 2-65                            [42, 1, 20, 20]           --
│    └─DoubleConv: 2-71                            --                        (recursive)
│    │    └─Sequential: 3-69                       [42, 1, 20, 20]           --
│    │    └─Sequential: 3-75                       --                        (recursive)
│    └─DoubleConv: 2-67                            --                        (recursive)
│    │    └─Sequential: 3-71                       --                        (recursive)
│    └─DoubleConv: 2-68                            [43, 1, 20, 20]           301
│    └─DoubleConv: 2-71                            --                        (recursive)
│    │    └─Sequential: 3-72                       [43, 1, 20, 20]           301
│    │    └─Sequential: 3-75                       --                        (recursive)
│    └─DoubleConv: 2-70                            [43, 1, 20, 20]           --
│    └─DoubleConv: 2-71                            --                        (recursive)
│    │    └─Sequential: 3-74                       [43, 1, 20, 20]           --
│    │    └─Sequential: 3-75                       --                        (recursive)
====================================================================================================
Total params: 2,525,574
Trainable params: 2,525,574
Non-trainable params: 0
Total mult-adds (Units.GIGABYTES): 1.89
====================================================================================================
…
