…
USE_OPENMP=ON, USE_ROCM=OFF, USE_ROCM_KERNEL_ASSERT=OFF, 

TorchVision: 0.19.1
OpenCV: 4.10.0
MMCV: 1.6.2
MMCV Compiler: n/a
MMCV CUDA Compiler: n/a
------------------------------------------------------------

2025-02-02 19:26:39,900 - cloud_retrieval - INFO - ====================================================================================================
Layer (type:depth-idx)                             Output Shape              Param #
====================================================================================================
DataParallel                                       [128, 2, 20, 20]          --
├─CAM: 1-1                                         [32, 2, 20, 20]           468,192
├─CAM: 1-8                                         --                        (recursive)
│    └─DoubleConv: 2-1                             [32, 32, 20, 20]          9,920
│    └─DoubleConv: 2-17                            --                        (recursive)
│    │    └─Sequential: 3-1                        [32, 32, 20, 20]          9,920
│    │    └─Sequential: 3-14                       --                        (recursive)
├─CAM: 1-3                                         [32, 2, 20, 20]           --
├─CAM: 1-8                                         --                        (recursive)
│    └─DoubleConv: 2-3                             [32, 32, 20, 20]          --
│    └─DoubleConv: 2-17                            --                        (recursive)
│    │    └─Sequential: 3-3                        [32, 32, 20, 20]          --
│    │    └─Sequential: 3-14                       --                        (recursive)
├─CAM: 1-5                                         [32, 2, 20, 20]           --
├─CAM: 1-8                                         --                        (recursive)
│    └─DoubleConv: 2-5                             [32, 32, 20, 20]          --
│    └─DoubleConv: 2-17                            --                        (recursive)
│    │    └─Sequential: 3-5                        [32, 32, 20, 20]          --
│    │    └─Sequential: 3-14                       --                        (recursive)
├─CAM: 1-7                                         [32, 2, 20, 20]           --
├─CAM: 1-8                                         --                        (recursive)
│    └─DoubleConv: 2-7                             [32, 32, 20, 20]          --
│    └─DoubleConv: 2-17                            --                        (recursive)
│    │    └─Sequential: 3-7                        [32, 32, 20, 20]          --
│    │    └─Sequential: 3-14                       --                        (recursive)
│    └─CBAM: 2-9                                   [32, 32, 20, 20]          --
│    └─CBAM: 2-19                                  --                        (recursive)
│    │    └─ChannelGate: 3-9                       [32, 32, 20, 20]          --
│    └─DoubleConv: 2-17                            --                        (recursive)
│    │    └─Sequential: 3-14                       --                        (recursive)
│    └─CBAM: 2-12                                  [32, 32, 20, 20]          --
│    └─CBAM: 2-19                                  --                        (recursive)
│    │    └─ChannelGate: 3-11                      [32, 32, 20, 20]          --
│    └─DoubleConv: 2-17                            --                        (recursive)
│    │    └─Sequential: 3-14                       --                        (recursive)
│    └─CBAM: 2-15                                  [32, 32, 20, 20]          162
│    └─CBAM: 2-19                                  --                        (recursive)
│    │    └─ChannelGate: 3-13                      [32, 32, 20, 20]          162
│    └─DoubleConv: 2-17                            --                        (recursive)
│    │    └─Sequential: 3-14                       --                        (recursive)
│    └─CBAM: 2-18                                  [32, 32, 20, 20]          --
│    └─CBAM: 2-19                                  --                        (recursive)
│    │    └─ChannelGate: 3-15                      [32, 32, 20, 20]          --
│    │    └─ChannelGate: 3-16                      --                        162
│    └─Down: 2-20                                  [32, 64, 10, 10]          --
│    └─Down: 2-41                                  --                        (recursive)
│    │    └─Sequential: 3-17                       [32, 64, 10, 10]          --
│    │    └─Sequential: 3-38                       --                        (recursive)
│    └─Down: 2-22                                  [32, 64, 10, 10]          --
│    └─Down: 2-41                                  --                        (recursive)
│    │    └─Sequential: 3-19                       [32, 64, 10, 10]          --
│    │    └─Sequential: 3-38                       --                        (recursive)
│    └─Down: 2-24                                  [32, 64, 10, 10]          55,552
│    └─Down: 2-41                                  --                        (recursive)
│    │    └─Sequential: 3-21                       [32, 64, 10, 10]          55,552
│    │    └─Sequential: 3-38                       --                        (recursive)
│    └─Down: 2-26                                  [32, 64, 10, 10]          --
│    └─Down: 2-41                                  --                        (recursive)
│    │    └─Sequential: 3-23                       [32, 64, 10, 10]          --
│    │    └─Sequential: 3-38                       --                        (recursive)
│    └─CBAM: 2-28                                  [32, 64, 10, 10]          --
│    └─CBAM: 2-57                                  --                        (recursive)
│    │    └─ChannelGate: 3-25                      [32, 64, 10, 10]          --
│    │    └─ChannelGate: 3-54                      --                        (recursive)
│    └─Down: 2-41                                  --                        (recursive)
│    │    └─Sequential: 3-38                       --                        (recursive)
│    └─CBAM: 2-57                                  --                        (recursive)
│    │    └─ChannelGate: 3-54                      --                        (recursive)
│    └─CBAM: 2-32                                  [32, 64, 10, 10]          --
│    └─CBAM: 2-57                                  --                        (recursive)
│    │    └─ChannelGate: 3-29                      [32, 64, 10, 10]          --
│    │    └─ChannelGate: 3-54                      --                        (recursive)
│    └─Down: 2-41                                  --                        (recursive)
│    │    └─Sequential: 3-38                       --                        (recursive)
│    └─CBAM: 2-57                                  --                        (recursive)
│    │    └─ChannelGate: 3-54                      --                        (recursive)
│    └─Down: 2-36                                  [32, 128, 5, 5]           --
│    └─Down: 2-71                                  --                        (recursive)
│    │    └─Sequential: 3-33                       [32, 128, 5, 5]           --
│    │    └─Sequential: 3-65                       --                        (recursive)
│    └─CBAM: 2-57                                  --                        (recursive)
│    │    └─ChannelGate: 3-54                      --                        (recursive)
│    └─Down: 2-41                                  --                        (recursive)
│    │    └─Sequential: 3-38                       --                        (recursive)
│    └─Down: 2-71                                  --                        (recursive)
│    │    └─Sequential: 3-65                       --                        (recursive)
│    └─Down: 2-41                                  --                        (recursive)
│    │    └─Sequential: 3-38                       --                        (recursive)
│    └─CBAM: 2-57                                  --                        (recursive)
│    │    └─ChannelGate: 3-54                      --                        (recursive)
│    └─CBAM: 2-43                                  [32, 64, 10, 10]          --
│    └─CBAM: 2-57                                  --                        (recursive)
│    │    └─ChannelGate: 3-40                      [32, 64, 10, 10]          --
│    │    └─ChannelGate: 3-54                      --                        (recursive)
│    └─CBAM: 2-45                                  [32, 64, 10, 10]          580
│    └─CBAM: 2-57                                  --                        (recursive)
│    │    └─ChannelGate: 3-42                      [32, 64, 10, 10]          580
│    │    └─ChannelGate: 3-54                      --                        (recursive)
│    └─Down: 2-71                                  --                        (recursive)
│    │    └─Sequential: 3-65                       --                        (recursive)
│    └─CBAM: 2-57                                  --                        (recursive)
│    │    └─ChannelGate: 3-54                      --                        (recursive)
│    └─Down: 2-71                                  --                        (recursive)
│    │    └─Sequential: 3-65                       --                        (recursive)
│    └─CBAM: 2-57                                  --                        (recursive)
│    │    └─ChannelGate: 3-54                      --                        (recursive)
│    └─Down: 2-51                                  [32, 128, 5, 5]           --
│    └─Down: 2-71                                  --                        (recursive)
│    │    └─Sequential: 3-48                       [32, 128, 5, 5]           --
│    │    └─Sequential: 3-65                       --                        (recursive)
│    └─CBAM: 2-57                                  --                        (recursive)
│    │    └─ChannelGate: 3-54                      --                        (recursive)
│    └─Down: 2-71                                  --                        (recursive)
│    │    └─Sequential: 3-65                       --                        (recursive)
…
│    │    └─ChannelGate: 3-54                      --                        (recursive)
│    └─Down: 2-71                                  --                        (recursive)
│    │    └─Sequential: 3-65                       --                        (recursive)
│    └─CBAM: 2-57                                  --                        (recursive)
│    │    └─ChannelGate: 3-54                      --                        (recursive)
│    └─Down: 2-71                                  --                        (recursive)
│    │    └─Sequential: 3-65                       --                        (recursive)
│    └─Up: 2-59                                    [32, 64, 10, 10]          --
│    └─Up: 2-95                                    --                        (recursive)
│    │    └─ConvTranspose2d: 3-56                  [32, 64, 10, 10]          --
│    └─Down: 2-71                                  --                        (recursive)
│    │    └─Sequential: 3-65                       --                        (recursive)
│    └─Down: 2-62                                  [32, 128, 5, 5]           --
│    └─Down: 2-71                                  --                        (recursive)
│    │    └─Sequential: 3-58                       [32, 128, 5, 5]           --
│    │    └─Sequential: 3-65                       --                        (recursive)
│    └─Down: 2-64                                  [32, 128, 5, 5]           221,696
│    └─Down: 2-71                                  --                        (recursive)
│    │    └─Sequential: 3-60                       [32, 128, 5, 5]           221,696
│    │    └─Sequential: 3-65                       --                        (recursive)
│    └─Up: 2-66                                    [32, 64, 10, 10]          --
│    └─Up: 2-95                                    --                        (recursive)
│    │    └─ConvTranspose2d: 3-62                  [32, 64, 10, 10]          --
│    └─Down: 2-71                                  --                        (recursive)
│    │    └─Sequential: 3-65                       --                        (recursive)
│    └─Up: 2-69                                    [32, 64, 10, 10]          --
│    └─Up: 2-95                                    --                        (recursive)
│    │    └─ConvTranspose2d: 3-64                  [32, 64, 10, 10]          --
│    └─Down: 2-71                                  --                        (recursive)
│    │    └─Sequential: 3-65                       --                        (recursive)
│    └─Up: 2-72                                    [32, 64, 10, 10]          143,680
│    └─Up: 2-95                                    --                        (recursive)
│    │    └─ConvTranspose2d: 3-66                  [32, 64, 10, 10]          32,832
│    │    └─Dropout: 3-67                          [32, 64, 10, 10]          --
│    │    └─Dropout: 3-68                          [32, 64, 10, 10]          --
│    │    └─Dropout: 3-69                          [32, 64, 10, 10]          --
│    │    └─Dropout: 3-70                          [32, 64, 10, 10]          --
│    │    └─DoubleConv: 3-71                       [32, 64, 10, 10]          110,848
│    │    └─DoubleConv: 3-102                      --                        (recursive)
│    │    └─DoubleConv: 3-73                       [32, 64, 10, 10]          --
│    │    └─DoubleConv: 3-102                      --                        (recursive)
│    │    └─DoubleConv: 3-75                       [32, 64, 10, 10]          --
│    │    └─DoubleConv: 3-102                      --                        (recursive)
│    └─Up: 2-74                                    [32, 32, 20, 20]          36,000
│    └─Up: 2-102                                   --                        (recursive)
│    │    └─ConvTranspose2d: 3-77                  [32, 32, 20, 20]          8,224
│    └─Up: 2-95                                    --                        (recursive)
│    │    └─DoubleConv: 3-102                      --                        (recursive)
│    │    └─DoubleConv: 3-79                       [32, 64, 10, 10]          --
│    │    └─DoubleConv: 3-102                      --                        (recursive)
│    └─Up: 2-102                                   --                        (recursive)
│    │    └─Dropout: 3-81                          [32, 32, 20, 20]          --
│    └─Up: 2-95                                    --                        (recursive)
│    │    └─DoubleConv: 3-102                      --                        (recursive)
│    └─Up: 2-102                                   --                        (recursive)
│    │    └─DoubleConv: 3-83                       [32, 32, 20, 20]          27,776
│    │    └─DoubleConv: 3-112                      --                        (recursive)
│    └─Up: 2-95                                    --                        (recursive)
│    │    └─DoubleConv: 3-102                      --                        (recursive)
│    └─Up: 2-81                                    [32, 32, 20, 20]          --
│    └─Up: 2-102                                   --                        (recursive)
│    │    └─ConvTranspose2d: 3-86                  [32, 32, 20, 20]          --
│    └─Up: 2-95                                    --                        (recursive)
│    │    └─DoubleConv: 3-102                      --                        (recursive)
│    └─Up: 2-84                                    [32, 32, 20, 20]          --
│    └─Up: 2-102                                   --                        (recursive)
│    │    └─ConvTranspose2d: 3-88                  [32, 32, 20, 20]          --
│    └─Up: 2-95                                    --                        (recursive)
│    │    └─DoubleConv: 3-102                      --                        (recursive)
│    └─Up: 2-102                                   --                        (recursive)
│    │    └─Dropout: 3-90                          [32, 32, 20, 20]          --
│    │    └─Dropout: 3-91                          [32, 32, 20, 20]          --
│    └─Up: 2-95                                    --                        (recursive)
│    │    └─DoubleConv: 3-102                      --                        (recursive)
│    └─Up: 2-102                                   --                        (recursive)
│    │    └─DoubleConv: 3-112                      --                        (recursive)
│    └─Up: 2-95                                    --                        (recursive)
│    │    └─DoubleConv: 3-102                      --                        (recursive)
│    └─Up: 2-102                                   --                        (recursive)
│    │    └─DoubleConv: 3-95                       [32, 32, 20, 20]          --
│    │    └─DoubleConv: 3-112                      --                        (recursive)
│    │    └─DoubleConv: 3-97                       [32, 32, 20, 20]          --
│    │    └─DoubleConv: 3-112                      --                        (recursive)
│    └─DoubleConv: 2-92                            [32, 1, 20, 20]           301
│    └─DoubleConv: 2-112                           --                        (recursive)
│    │    └─Sequential: 3-99                       [32, 1, 20, 20]           301
│    │    └─Sequential: 3-122                      --                        (recursive)
│    └─Up: 2-102                                   --                        (recursive)
│    │    └─DoubleConv: 3-112                      --                        (recursive)
│    └─Up: 2-95                                    --                        (recursive)
│    │    └─DoubleConv: 3-102                      --                        (recursive)
│    └─Up: 2-96                                    [32, 32, 20, 20]          --
│    └─Up: 2-102                                   --                        (recursive)
│    │    └─ConvTranspose2d: 3-103                 [32, 32, 20, 20]          --
│    │    └─Dropout: 3-104                         [32, 32, 20, 20]          --
│    │    └─DoubleConv: 3-112                      --                        (recursive)
│    │    └─DoubleConv: 3-106                      [32, 32, 20, 20]          --
│    │    └─DoubleConv: 3-112                      --                        (recursive)
│    └─DoubleConv: 2-98                            [32, 1, 20, 20]           --
│    └─DoubleConv: 2-112                           --                        (recursive)
│    │    └─Sequential: 3-108                      [32, 1, 20, 20]           --
│    │    └─Sequential: 3-122                      --                        (recursive)
│    └─DoubleConv: 2-100                           [32, 1, 20, 20]           --
│    └─DoubleConv: 2-112                           --                        (recursive)
│    │    └─Sequential: 3-110                      [32, 1, 20, 20]           --
│    │    └─Sequential: 3-122                      --                        (recursive)
│    └─Up: 2-102                                   --                        (recursive)
│    │    └─DoubleConv: 3-112                      --                        (recursive)
│    └─DoubleConv: 2-103                           [32, 1, 20, 20]           --
│    └─DoubleConv: 2-112                           --                        (recursive)
│    │    └─Sequential: 3-113                      [32, 1, 20, 20]           --
│    │    └─Sequential: 3-122                      --                        (recursive)
│    └─DoubleConv: 2-105                           [32, 1, 20, 20]           --
│    └─DoubleConv: 2-117                           --                        (recursive)
│    │    └─Sequential: 3-115                      [32, 1, 20, 20]           --
│    │    └─Sequential: 3-127                      --                        (recursive)
│    └─DoubleConv: 2-112                           --                        (recursive)
│    │    └─Sequential: 3-122                      --                        (recursive)
│    └─DoubleConv: 2-108                           [32, 1, 20, 20]           --
│    └─DoubleConv: 2-117                           --                        (recursive)
│    │    └─Sequential: 3-118                      [32, 1, 20, 20]           --
│    │    └─Sequential: 3-127                      --                        (recursive)
│    └─DoubleConv: 2-112                           --                        (recursive)
│    │    └─Sequential: 3-122                      --                        (recursive)
│    └─DoubleConv: 2-117                           --                        (recursive)
│    │    └─Sequential: 3-127                      --                        (recursive)
│    └─DoubleConv: 2-112                           --                        (recursive)
│    │    └─Sequential: 3-122                      --                        (recursive)
│    └─DoubleConv: 2-117                           --                        (recursive)
│    │    └─Sequential: 3-127                      --                        (recursive)
│    └─DoubleConv: 2-114                           [32, 1, 20, 20]           --
│    └─DoubleConv: 2-117                           --                        (recursive)
│    │    └─Sequential: 3-124                      [32, 1, 20, 20]           --
│    │    └─Sequential: 3-127                      --                        (recursive)
│    └─DoubleConv: 2-116                           [32, 1, 20, 20]           301
│    └─DoubleConv: 2-117                           --                        (recursive)
│    │    └─Sequential: 3-126                      [32, 1, 20, 20]           301
│    │    └─Sequential: 3-127                      --                        (recursive)
====================================================================================================
Total params: 2,525,574
Trainable params: 2,525,574
Non-trainable params: 0
Total mult-adds (Units.GIGABYTES): 1.41
====================================================================================================
…
USE_OPENMP=ON, USE_ROCM=OFF, USE_ROCM_KERNEL_ASSERT=OFF, 

TorchVision: 0.19.1
OpenCV: 4.10.0
MMCV: 1.6.2
MMCV Compiler: n/a
MMCV CUDA Compiler: n/a
------------------------------------------------------------

2025-02-02 19:26:57,513 - cloud_retrieval - INFO - ====================================================================================================
Layer (type:depth-idx)                             Output Shape              Param #
====================================================================================================
DataParallel                                       [128, 2, 20, 20]          --
├─CAM: 1-1                                         [32, 2, 20, 20]           468,192
├─CAM: 1-8                                         --                        (recursive)
│    └─DoubleConv: 2-1                             [32, 32, 20, 20]          9,920
│    └─DoubleConv: 2-17                            --                        (recursive)
│    │    └─Sequential: 3-1                        [32, 32, 20, 20]          9,920
│    │    └─Sequential: 3-17                       --                        (recursive)
├─CAM: 1-3                                         [32, 2, 20, 20]           --
├─CAM: 1-8                                         --                        (recursive)
│    └─DoubleConv: 2-3                             [32, 32, 20, 20]          --
│    └─DoubleConv: 2-17                            --                        (recursive)
│    │    └─Sequential: 3-3                        [32, 32, 20, 20]          --
│    │    └─Sequential: 3-17                       --                        (recursive)
├─CAM: 1-5                                         [32, 2, 20, 20]           --
├─CAM: 1-8                                         --                        (recursive)
│    └─DoubleConv: 2-5                             [32, 32, 20, 20]          --
│    └─DoubleConv: 2-17                            --                        (recursive)
│    │    └─Sequential: 3-5                        [32, 32, 20, 20]          --
│    │    └─Sequential: 3-17                       --                        (recursive)
├─CAM: 1-7                                         [32, 2, 20, 20]           --
├─CAM: 1-8                                         --                        (recursive)
│    └─DoubleConv: 2-7                             [32, 32, 20, 20]          --
│    └─DoubleConv: 2-17                            --                        (recursive)
│    │    └─Sequential: 3-7                        [32, 32, 20, 20]          --
│    │    └─Sequential: 3-17                       --                        (recursive)
│    └─CBAM: 2-9                                   [32, 32, 20, 20]          162
│    └─CBAM: 2-23                                  --                        (recursive)
│    │    └─ChannelGate: 3-9                       [32, 32, 20, 20]          162
│    │    └─ChannelGate: 3-23                      --                        (recursive)
│    └─CBAM: 2-11                                  [32, 32, 20, 20]          --
│    └─CBAM: 2-23                                  --                        (recursive)
│    │    └─ChannelGate: 3-11                      [32, 32, 20, 20]          --
│    │    └─ChannelGate: 3-23                      --                        (recursive)
│    └─DoubleConv: 2-17                            --                        (recursive)
│    │    └─Sequential: 3-17                       --                        (recursive)
│    └─CBAM: 2-23                                  --                        (recursive)
│    │    └─ChannelGate: 3-23                      --                        (recursive)
│    └─CBAM: 2-15                                  [32, 32, 20, 20]          --
│    └─CBAM: 2-23                                  --                        (recursive)
│    │    └─ChannelGate: 3-15                      [32, 32, 20, 20]          --
│    │    └─ChannelGate: 3-23                      --                        (recursive)
│    └─DoubleConv: 2-17                            --                        (recursive)
│    │    └─Sequential: 3-17                       --                        (recursive)
│    └─CBAM: 2-23                                  --                        (recursive)
│    │    └─ChannelGate: 3-23                      --                        (recursive)
│    └─CBAM: 2-19                                  [32, 32, 20, 20]          --
│    └─CBAM: 2-23                                  --                        (recursive)
│    │    └─ChannelGate: 3-19                      [32, 32, 20, 20]          --
│    │    └─ChannelGate: 3-23                      --                        (recursive)
│    └─Down: 2-21                                  [32, 64, 10, 10]          --
│    └─Down: 2-39                                  --                        (recursive)
│    │    └─Sequential: 3-21                       [32, 64, 10, 10]          --
│    │    └─Sequential: 3-39                       --                        (recursive)
│    └─CBAM: 2-23                                  --                        (recursive)
│    │    └─ChannelGate: 3-23                      --                        (recursive)
│    └─Down: 2-39                                  --                        (recursive)
│    │    └─Sequential: 3-39                       --                        (recursive)
│    └─Down: 2-25                                  [32, 64, 10, 10]          55,552
│    └─Down: 2-39                                  --                        (recursive)
│    │    └─Sequential: 3-25                       [32, 64, 10, 10]          55,552
│    │    └─Sequential: 3-39                       --                        (recursive)
│    └─Down: 2-27                                  [32, 64, 10, 10]          --
│    └─Down: 2-39                                  --                        (recursive)
│    │    └─Sequential: 3-27                       [32, 64, 10, 10]          --
│    │    └─Sequential: 3-39                       --                        (recursive)
│    └─Down: 2-29                                  [32, 64, 10, 10]          --
│    └─Down: 2-39                                  --                        (recursive)
│    │    └─Sequential: 3-29                       [32, 64, 10, 10]          --
│    │    └─Sequential: 3-39                       --                        (recursive)
│    └─CBAM: 2-31                                  [32, 64, 10, 10]          --
│    └─CBAM: 2-50                                  --                        (recursive)
│    │    └─ChannelGate: 3-31                      [32, 64, 10, 10]          --
│    │    └─ChannelGate: 3-50                      --                        (recursive)
│    └─Down: 2-39                                  --                        (recursive)
│    │    └─Sequential: 3-39                       --                        (recursive)
│    └─CBAM: 2-50                                  --                        (recursive)
│    │    └─ChannelGate: 3-50                      --                        (recursive)
│    └─Down: 2-39                                  --                        (recursive)
│    │    └─Sequential: 3-39                       --                        (recursive)
│    └─CBAM: 2-50                                  --                        (recursive)
│    │    └─ChannelGate: 3-50                      --                        (recursive)
│    └─CBAM: 2-37                                  [32, 64, 10, 10]          --
│    └─CBAM: 2-50                                  --                        (recursive)
│    │    └─ChannelGate: 3-37                      [32, 64, 10, 10]          --
│    │    └─ChannelGate: 3-50                      --                        (recursive)
│    └─Down: 2-39                                  --                        (recursive)
│    │    └─Sequential: 3-39                       --                        (recursive)
│    └─CBAM: 2-50                                  --                        (recursive)
│    │    └─ChannelGate: 3-50                      --                        (recursive)
│    └─CBAM: 2-41                                  [32, 64, 10, 10]          580
│    └─CBAM: 2-50                                  --                        (recursive)
│    │    └─ChannelGate: 3-41                      [32, 64, 10, 10]          580
│    │    └─ChannelGate: 3-50                      --                        (recursive)
│    └─CBAM: 2-43                                  [32, 64, 10, 10]          --
│    └─CBAM: 2-50                                  --                        (recursive)
│    │    └─ChannelGate: 3-43                      [32, 64, 10, 10]          --
│    │    └─ChannelGate: 3-50                      --                        (recursive)
│    └─Down: 2-45                                  [32, 128, 5, 5]           --
│    └─Down: 2-71                                  --                        (recursive)
│    │    └─Sequential: 3-45                       [32, 128, 5, 5]           --
│    │    └─Sequential: 3-74                       --                        (recursive)
│    └─CBAM: 2-50                                  --                        (recursive)
│    │    └─ChannelGate: 3-50                      --                        (recursive)
│    └─Down: 2-48                                  [32, 128, 5, 5]           --
│    └─Down: 2-71                                  --                        (recursive)
│    │    └─Sequential: 3-48                       [32, 128, 5, 5]           --
│    │    └─Sequential: 3-74                       --                        (recursive)
│    └─CBAM: 2-50                                  --                        (recursive)
│    │    └─ChannelGate: 3-50                      --                        (recursive)
│    └─Down: 2-71                                  --                        (recursive)
│    │    └─Sequential: 3-74                       --                        (recursive)
│    └─Down: 2-52                                  [32, 128, 5, 5]           --
│    └─Down: 2-71                                  --                        (recursive)
│    │    └─Sequential: 3-52                       [32, 128, 5, 5]           --
│    │    └─Sequential: 3-74                       --                        (recursive)
│    └─Down: 2-54                                  [32, 128, 5, 5]           221,696
│    └─Down: 2-71                                  --                        (recursive)
│    │    └─Sequential: 3-54                       [32, 128, 5, 5]           221,696
│    │    └─Sequential: 3-74                       --                        (recursive)
│    └─Up: 2-56                                    [32, 64, 10, 10]          --
│    └─Up: 2-92                                    --                        (recursive)
│    │    └─ConvTranspose2d: 3-56                  [32, 64, 10, 10]          --
│    └─Down: 2-71                                  --                        (recursive)
│    │    └─Sequential: 3-74                       --                        (recursive)
│    └─Up: 2-92                                    --                        (recursive)
│    │    └─Dropout: 3-58                          [32, 64, 10, 10]          --
│    │    └─DoubleConv: 3-59                       [32, 64, 10, 10]          --
│    │    └─DoubleConv: 3-100                      --                        (recursive)
│    └─Down: 2-71                                  --                        (recursive)
│    │    └─Sequential: 3-74                       --                        (recursive)
│    └─Up: 2-61                                    [32, 64, 10, 10]          --
│    └─Up: 2-92                                    --                        (recursive)
│    │    └─ConvTranspose2d: 3-62                  [32, 64, 10, 10]          --
│    └─Down: 2-71                                  --                        (recursive)
│    │    └─Sequential: 3-74                       --                        (recursive)
│    └─Up: 2-92                                    --                        (recursive)
│    │    └─Dropout: 3-64                          [32, 64, 10, 10]          --
│    └─Down: 2-71                                  --                        (recursive)
│    │    └─Sequential: 3-74                       --                        (recursive)
│    └─Up: 2-92                                    --                        (recursive)
│    │    └─DoubleConv: 3-100                      --                        (recursive)
│    │    └─DoubleConv: 3-67                       [32, 64, 10, 10]          --
│    │    └─DoubleConv: 3-100                      --                        (recursive)
│    └─Up: 2-67                                    [32, 64, 10, 10]          --
│    └─Up: 2-92                                    --                        (recursive)
│    │    └─ConvTranspose2d: 3-69                  [32, 64, 10, 10]          --
│    │    └─DoubleConv: 3-100                      --                        (recursive)
│    └─Down: 2-71                                  --                        (recursive)
│    │    └─Sequential: 3-74                       --                        (recursive)
│    └─Up: 2-92                                    --                        (recursive)
│    │    └─Dropout: 3-72                          [32, 64, 10, 10]          --
│    │    └─DoubleConv: 3-100                      --                        (recursive)
│    └─Down: 2-71                                  --                        (recursive)
│    │    └─Sequential: 3-74                       --                        (recursive)
│    └─Up: 2-92                                    --                        (recursive)
│    │    └─DoubleConv: 3-75                       [32, 64, 10, 10]          --
│    │    └─DoubleConv: 3-100                      --                        (recursive)
│    └─Up: 2-73                                    [32, 64, 10, 10]          143,680
│    └─Up: 2-92                                    --                        (recursive)
│    │    └─ConvTranspose2d: 3-77                  [32, 64, 10, 10]          32,832
│    │    └─DoubleConv: 3-100                      --                        (recursive)
│    │    └─Dropout: 3-79                          [32, 64, 10, 10]          --
│    │    └─DoubleConv: 3-100                      --                        (recursive)
│    │    └─DoubleConv: 3-81                       [32, 64, 10, 10]          110,848
│    │    └─DoubleConv: 3-100                      --                        (recursive)
│    └─Up: 2-75                                    [32, 32, 20, 20]          --
│    └─Up: 2-115                                   --                        (recursive)
│    │    └─ConvTranspose2d: 3-83                  [32, 32, 20, 20]          --
│    └─Up: 2-92                                    --                        (recursive)
│    │    └─DoubleConv: 3-100                      --                        (recursive)
│    └─Up: 2-115                                   --                        (recursive)
│    │    └─Dropout: 3-85                          [32, 32, 20, 20]          --
│    └─Up: 2-92                                    --                        (recursive)
│    │    └─DoubleConv: 3-100                      --                        (recursive)
│    └─Up: 2-115                                   --                        (recursive)
│    │    └─DoubleConv: 3-87                       [32, 32, 20, 20]          --
│    │    └─DoubleConv: 3-130                      --                        (recursive)
│    └─Up: 2-92                                    --                        (recursive)
│    │    └─DoubleConv: 3-100                      --                        (recursive)
│    └─Up: 2-82                                    [32, 32, 20, 20]          --
│    └─Up: 2-115                                   --                        (recursive)
│    │    └─ConvTranspose2d: 3-90                  [32, 32, 20, 20]          --
│    └─Up: 2-92                                    --                        (recursive)
│    │    └─DoubleConv: 3-100                      --                        (recursive)
│    └─Up: 2-115                                   --                        (recursive)
│    │    └─Dropout: 3-92                          [32, 32, 20, 20]          --
│    └─Up: 2-92                                    --                        (recursive)
│    │    └─DoubleConv: 3-100                      --                        (recursive)
│    └─Up: 2-115                                   --                        (recursive)
│    │    └─DoubleConv: 3-94                       [32, 32, 20, 20]          --
│    │    └─DoubleConv: 3-130                      --                        (recursive)
│    └─Up: 2-92                                    --                        (recursive)
│    │    └─DoubleConv: 3-100                      --                        (recursive)
│    └─Up: 2-115                                   --                        (recursive)
│    │    └─DoubleConv: 3-130                      --                        (recursive)
…
│    │    └─DoubleConv: 3-100                      --                        (recursive)
│    └─Up: 2-115                                   --                        (recursive)
│    │    └─DoubleConv: 3-130                      --                        (recursive)
│    └─Up: 2-92                                    --                        (recursive)
│    │    └─DoubleConv: 3-100                      --                        (recursive)
│    └─Up: 2-115                                   --                        (recursive)
│    │    └─DoubleConv: 3-130                      --                        (recursive)
│    └─Up: 2-94                                    [32, 32, 20, 20]          --
│    └─Up: 2-115                                   --                        (recursive)
│    │    └─ConvTranspose2d: 3-102                 [32, 32, 20, 20]          --
│    └─Up: 2-96                                    [32, 32, 20, 20]          36,000
│    └─Up: 2-115                                   --                        (recursive)
│    │    └─ConvTranspose2d: 3-103                 [32, 32, 20, 20]          8,224
│    │    └─DoubleConv: 3-130                      --                        (recursive)
│    │    └─Dropout: 3-105                         [32, 32, 20, 20]          --
│    │    └─DoubleConv: 3-130                      --                        (recursive)
│    │    └─Dropout: 3-107                         [32, 32, 20, 20]          --
│    │    └─DoubleConv: 3-130                      --                        (recursive)
│    │    └─DoubleConv: 3-109                      [32, 32, 20, 20]          --
│    │    └─DoubleConv: 3-130                      --                        (recursive)
│    │    └─DoubleConv: 3-111                      [32, 32, 20, 20]          27,776
│    │    └─DoubleConv: 3-130                      --                        (recursive)
│    └─DoubleConv: 2-98                            [32, 1, 20, 20]           --
│    └─DoubleConv: 2-136                           --                        (recursive)
│    │    └─Sequential: 3-113                      [32, 1, 20, 20]           --
│    │    └─Sequential: 3-151                      --                        (recursive)
│    └─Up: 2-115                                   --                        (recursive)
│    │    └─DoubleConv: 3-130                      --                        (recursive)
│    └─DoubleConv: 2-101                           [32, 1, 20, 20]           --
│    └─DoubleConv: 2-136                           --                        (recursive)
│    │    └─Sequential: 3-116                      [32, 1, 20, 20]           --
│    │    └─Sequential: 3-151                      --                        (recursive)
│    └─Up: 2-115                                   --                        (recursive)
│    │    └─DoubleConv: 3-130                      --                        (recursive)
│    └─DoubleConv: 2-136                           --                        (recursive)
│    │    └─Sequential: 3-151                      --                        (recursive)
…
│    │    └─DoubleConv: 3-130                      --                        (recursive)
│    └─DoubleConv: 2-136                           --                        (recursive)
│    │    └─Sequential: 3-151                      --                        (recursive)
│    └─Up: 2-115                                   --                        (recursive)
│    │    └─DoubleConv: 3-130                      --                        (recursive)
│    └─DoubleConv: 2-136                           --                        (recursive)
│    │    └─Sequential: 3-151                      --                        (recursive)
│    └─DoubleConv: 2-111                           [32, 1, 20, 20]           301
│    └─DoubleConv: 2-136                           --                        (recursive)
│    │    └─Sequential: 3-126                      [32, 1, 20, 20]           301
│    │    └─Sequential: 3-151                      --                        (recursive)
│    └─Up: 2-115                                   --                        (recursive)
│    │    └─DoubleConv: 3-130                      --                        (recursive)
│    └─DoubleConv: 2-136                           --                        (recursive)
│    │    └─Sequential: 3-151                      --                        (recursive)
│    └─Up: 2-115                                   --                        (recursive)
│    │    └─DoubleConv: 3-130                      --                        (recursive)
│    └─DoubleConv: 2-136                           --                        (recursive)
│    │    └─Sequential: 3-151                      --                        (recursive)
│    └─DoubleConv: 2-117                           [32, 1, 20, 20]           --
│    └─DoubleConv: 2-139                           --                        (recursive)
│    │    └─Sequential: 3-132                      [32, 1, 20, 20]           --
│    │    └─Sequential: 3-154                      --                        (recursive)
│    └─DoubleConv: 2-119                           [32, 1, 20, 20]           --
│    └─DoubleConv: 2-136                           --                        (recursive)
│    │    └─Sequential: 3-134                      [32, 1, 20, 20]           --
│    │    └─Sequential: 3-151                      --                        (recursive)
│    └─DoubleConv: 2-121                           [32, 1, 20, 20]           --
│    └─DoubleConv: 2-139                           --                        (recursive)
│    │    └─Sequential: 3-136                      [32, 1, 20, 20]           --
│    │    └─Sequential: 3-154                      --                        (recursive)
│    └─DoubleConv: 2-136                           --                        (recursive)
│    │    └─Sequential: 3-151                      --                        (recursive)
│    └─DoubleConv: 2-139                           --                        (recursive)
│    │    └─Sequential: 3-154                      --                        (recursive)
…
USE_OPENMP=ON, USE_ROCM=OFF, USE_ROCM_KERNEL_ASSERT=OFF, 

TorchVision: 0.19.1
OpenCV: 4.10.0
MMCV: 1.6.2
MMCV Compiler: n/a
MMCV CUDA Compiler: n/a
------------------------------------------------------------

2025-02-02 19:27:14,641 - cloud_retrieval - INFO - ====================================================================================================
Layer (type:depth-idx)                             Output Shape              Param #
====================================================================================================
DataParallel                                       [128, 2, 20, 20]          --
├─CAM: 1-1                                         [32, 2, 20, 20]           468,192
├─CAM: 1-8                                         --                        (recursive)
│    └─DoubleConv: 2-1                             [32, 32, 20, 20]          9,920
│    └─DoubleConv: 2-15                            --                        (recursive)
│    │    └─Sequential: 3-1                        [32, 32, 20, 20]          9,920
│    │    └─Sequential: 3-14                       --                        (recursive)
├─CAM: 1-3                                         [32, 2, 20, 20]           --
├─CAM: 1-8                                         --                        (recursive)
│    └─DoubleConv: 2-3                             [32, 32, 20, 20]          --
│    └─DoubleConv: 2-15                            --                        (recursive)
│    │    └─Sequential: 3-3                        [32, 32, 20, 20]          --
│    │    └─Sequential: 3-14                       --                        (recursive)
├─CAM: 1-5                                         [32, 2, 20, 20]           --
├─CAM: 1-8                                         --                        (recursive)
│    └─DoubleConv: 2-5                             [32, 32, 20, 20]          --
│    └─DoubleConv: 2-15                            --                        (recursive)
│    │    └─Sequential: 3-5                        [32, 32, 20, 20]          --
│    │    └─Sequential: 3-14                       --                        (recursive)
├─CAM: 1-7                                         [32, 2, 20, 20]           --
├─CAM: 1-8                                         --                        (recursive)
│    └─DoubleConv: 2-7                             [32, 32, 20, 20]          --
│    └─DoubleConv: 2-15                            --                        (recursive)
│    │    └─Sequential: 3-7                        [32, 32, 20, 20]          --
│    │    └─Sequential: 3-14                       --                        (recursive)
│    └─CBAM: 2-9                                   [32, 32, 20, 20]          162
│    └─CBAM: 2-20                                  --                        (recursive)
│    │    └─ChannelGate: 3-9                       [32, 32, 20, 20]          162
│    └─DoubleConv: 2-15                            --                        (recursive)
│    │    └─Sequential: 3-14                       --                        (recursive)
│    └─CBAM: 2-20                                  --                        (recursive)
│    │    └─ChannelGate: 3-19                      --                        (recursive)
│    └─CBAM: 2-13                                  [32, 32, 20, 20]          --
│    └─CBAM: 2-20                                  --                        (recursive)
│    │    └─ChannelGate: 3-12                      [32, 32, 20, 20]          --
│    │    └─ChannelGate: 3-19                      --                        (recursive)
│    └─DoubleConv: 2-15                            --                        (recursive)
│    │    └─Sequential: 3-14                       --                        (recursive)
│    └─CBAM: 2-20                                  --                        (recursive)
│    │    └─ChannelGate: 3-19                      --                        (recursive)
│    └─CBAM: 2-17                                  [32, 32, 20, 20]          --
│    └─CBAM: 2-20                                  --                        (recursive)
│    │    └─ChannelGate: 3-16                      [32, 32, 20, 20]          --
│    │    └─ChannelGate: 3-19                      --                        (recursive)
│    └─CBAM: 2-19                                  [32, 32, 20, 20]          --
│    └─CBAM: 2-20                                  --                        (recursive)
│    │    └─ChannelGate: 3-18                      [32, 32, 20, 20]          --
│    │    └─ChannelGate: 3-19                      --                        (recursive)
│    └─Down: 2-21                                  [32, 64, 10, 10]          --
│    └─Down: 2-35                                  --                        (recursive)
│    │    └─Sequential: 3-20                       [32, 64, 10, 10]          --
│    │    └─Sequential: 3-34                       --                        (recursive)
│    └─Down: 2-23                                  [32, 64, 10, 10]          55,552
│    └─Down: 2-35                                  --                        (recursive)
│    │    └─Sequential: 3-22                       [32, 64, 10, 10]          55,552
│    │    └─Sequential: 3-34                       --                        (recursive)
│    └─Down: 2-25                                  [32, 64, 10, 10]          --
│    └─Down: 2-35                                  --                        (recursive)
│    │    └─Sequential: 3-24                       [32, 64, 10, 10]          --
│    │    └─Sequential: 3-34                       --                        (recursive)
│    └─Down: 2-27                                  [32, 64, 10, 10]          --
│    └─Down: 2-35                                  --                        (recursive)
│    │    └─Sequential: 3-26                       [32, 64, 10, 10]          --
│    │    └─Sequential: 3-34                       --                        (recursive)
│    └─CBAM: 2-29                                  [32, 64, 10, 10]          --
│    └─CBAM: 2-47                                  --                        (recursive)
│    │    └─ChannelGate: 3-28                      [32, 64, 10, 10]          --
│    │    └─ChannelGate: 3-45                      --                        (recursive)
│    └─Down: 2-35                                  --                        (recursive)
│    │    └─Sequential: 3-34                       --                        (recursive)
│    └─CBAM: 2-47                                  --                        (recursive)
│    │    └─ChannelGate: 3-45                      --                        (recursive)
…
│    │    └─Sequential: 3-34                       --                        (recursive)
│    └─CBAM: 2-47                                  --                        (recursive)
│    │    └─ChannelGate: 3-45                      --                        (recursive)
│    └─Down: 2-35                                  --                        (recursive)
│    │    └─Sequential: 3-34                       --                        (recursive)
│    └─CBAM: 2-47                                  --                        (recursive)
│    │    └─ChannelGate: 3-45                      --                        (recursive)
│    └─CBAM: 2-37                                  [32, 64, 10, 10]          --
│    └─CBAM: 2-47                                  --                        (recursive)
│    │    └─ChannelGate: 3-36                      [32, 64, 10, 10]          --
│    └─CBAM: 2-39                                  [32, 64, 10, 10]          580
│    └─CBAM: 2-47                                  --                        (recursive)
│    │    └─ChannelGate: 3-37                      [32, 64, 10, 10]          580
│    │    └─ChannelGate: 3-45                      --                        (recursive)
│    └─CBAM: 2-41                                  [32, 64, 10, 10]          --
│    └─CBAM: 2-47                                  --                        (recursive)
│    │    └─ChannelGate: 3-39                      [32, 64, 10, 10]          --
│    │    └─ChannelGate: 3-45                      --                        (recursive)
│    └─Down: 2-43                                  [32, 128, 5, 5]           --
│    └─Down: 2-59                                  --                        (recursive)
│    │    └─Sequential: 3-41                       [32, 128, 5, 5]           --
│    │    └─Sequential: 3-58                       --                        (recursive)
│    └─CBAM: 2-47                                  --                        (recursive)
│    │    └─ChannelGate: 3-45                      --                        (recursive)
│    └─Down: 2-59                                  --                        (recursive)
│    │    └─Sequential: 3-58                       --                        (recursive)
│    └─CBAM: 2-47                                  --                        (recursive)
│    │    └─ChannelGate: 3-45                      --                        (recursive)
│    └─Down: 2-59                                  --                        (recursive)
│    │    └─Sequential: 3-58                       --                        (recursive)
│    └─Down: 2-49                                  [32, 128, 5, 5]           221,696
│    └─Down: 2-59                                  --                        (recursive)
│    │    └─Sequential: 3-47                       [32, 128, 5, 5]           221,696
│    │    └─Sequential: 3-58                       --                        (recursive)
│    └─Down: 2-51                                  [32, 128, 5, 5]           --
│    └─Down: 2-59                                  --                        (recursive)
│    │    └─Sequential: 3-49                       [32, 128, 5, 5]           --
│    │    └─Sequential: 3-58                       --                        (recursive)
│    └─Down: 2-53                                  [32, 128, 5, 5]           --
│    └─Down: 2-59                                  --                        (recursive)
│    │    └─Sequential: 3-51                       [32, 128, 5, 5]           --
│    │    └─Sequential: 3-58                       --                        (recursive)
│    └─Up: 2-55                                    [32, 64, 10, 10]          --
│    └─Up: 2-79                                    --                        (recursive)
│    │    └─ConvTranspose2d: 3-53                  [32, 64, 10, 10]          --
│    │    └─Dropout: 3-54                          [32, 64, 10, 10]          --
│    └─Down: 2-59                                  --                        (recursive)
│    │    └─Sequential: 3-58                       --                        (recursive)
│    └─Up: 2-79                                    --                        (recursive)
│    │    └─DoubleConv: 3-56                       [32, 64, 10, 10]          --
│    │    └─DoubleConv: 3-88                       --                        (recursive)
│    └─Down: 2-59                                  --                        (recursive)
│    │    └─Sequential: 3-58                       --                        (recursive)
│    └─Up: 2-60                                    [32, 64, 10, 10]          143,680
│    └─Up: 2-79                                    --                        (recursive)
│    │    └─ConvTranspose2d: 3-59                  [32, 64, 10, 10]          32,832
│    │    └─DoubleConv: 3-88                       --                        (recursive)
│    └─Up: 2-62                                    [32, 64, 10, 10]          --
│    └─Up: 2-79                                    --                        (recursive)
│    │    └─ConvTranspose2d: 3-61                  [32, 64, 10, 10]          --
│    │    └─Dropout: 3-62                          [32, 64, 10, 10]          --
│    │    └─Dropout: 3-63                          [32, 64, 10, 10]          --
│    │    └─DoubleConv: 3-88                       --                        (recursive)
│    │    └─DoubleConv: 3-65                       [32, 64, 10, 10]          110,848
│    │    └─DoubleConv: 3-88                       --                        (recursive)
│    └─Up: 2-64                                    [32, 64, 10, 10]          --
│    └─Up: 2-79                                    --                        (recursive)
│    │    └─ConvTranspose2d: 3-67                  [32, 64, 10, 10]          --
│    │    └─DoubleConv: 3-68                       [32, 64, 10, 10]          --
│    │    └─DoubleConv: 3-88                       --                        (recursive)
│    │    └─Dropout: 3-70                          [32, 64, 10, 10]          --
│    │    └─DoubleConv: 3-71                       [32, 64, 10, 10]          --
│    │    └─DoubleConv: 3-88                       --                        (recursive)
│    └─Up: 2-66                                    [32, 32, 20, 20]          --
│    └─Up: 2-97                                    --                        (recursive)
│    │    └─ConvTranspose2d: 3-73                  [32, 32, 20, 20]          --
│    └─Up: 2-79                                    --                        (recursive)
│    │    └─DoubleConv: 3-88                       --                        (recursive)
│    └─Up: 2-97                                    --                        (recursive)
│    │    └─Dropout: 3-75                          [32, 32, 20, 20]          --
│    └─Up: 2-79                                    --                        (recursive)
│    │    └─DoubleConv: 3-88                       --                        (recursive)
│    └─Up: 2-97                                    --                        (recursive)
│    │    └─DoubleConv: 3-77                       [32, 32, 20, 20]          --
│    │    └─DoubleConv: 3-113                      --                        (recursive)
│    └─Up: 2-79                                    --                        (recursive)
│    │    └─DoubleConv: 3-88                       --                        (recursive)
│    └─Up: 2-73                                    [32, 32, 20, 20]          36,000
│    └─Up: 2-97                                    --                        (recursive)
│    │    └─ConvTranspose2d: 3-80                  [32, 32, 20, 20]          8,224
│    │    └─Dropout: 3-81                          [32, 32, 20, 20]          --
│    │    └─DoubleConv: 3-82                       [32, 32, 20, 20]          27,776
│    │    └─DoubleConv: 3-113                      --                        (recursive)
│    └─Up: 2-79                                    --                        (recursive)
│    │    └─DoubleConv: 3-88                       --                        (recursive)
│    └─Up: 2-97                                    --                        (recursive)
│    │    └─DoubleConv: 3-113                      --                        (recursive)
…
│    │    └─DoubleConv: 3-88                       --                        (recursive)
│    └─Up: 2-97                                    --                        (recursive)
│    │    └─DoubleConv: 3-113                      --                        (recursive)
│    └─Up: 2-79                                    --                        (recursive)
│    │    └─DoubleConv: 3-88                       --                        (recursive)
│    └─Up: 2-97                                    --                        (recursive)
│    │    └─DoubleConv: 3-113                      --                        (recursive)
│    └─Up: 2-81                                    [32, 32, 20, 20]          --
│    └─Up: 2-97                                    --                        (recursive)
│    │    └─ConvTranspose2d: 3-90                  [32, 32, 20, 20]          --
│    └─Up: 2-83                                    [32, 32, 20, 20]          --
│    └─Up: 2-97                                    --                        (recursive)
│    │    └─ConvTranspose2d: 3-91                  [32, 32, 20, 20]          --
│    │    └─DoubleConv: 3-113                      --                        (recursive)
│    │    └─Dropout: 3-93                          [32, 32, 20, 20]          --
│    │    └─DoubleConv: 3-113                      --                        (recursive)
│    │    └─DoubleConv: 3-95                       [32, 32, 20, 20]          --
│    │    └─DoubleConv: 3-113                      --                        (recursive)
│    │    └─Dropout: 3-97                          [32, 32, 20, 20]          --
│    │    └─DoubleConv: 3-113                      --                        (recursive)
│    │    └─DoubleConv: 3-99                       [32, 32, 20, 20]          --
│    │    └─DoubleConv: 3-113                      --                        (recursive)
│    └─DoubleConv: 2-85                            [32, 1, 20, 20]           301
│    └─DoubleConv: 2-122                           --                        (recursive)
│    │    └─Sequential: 3-101                      [32, 1, 20, 20]           301
│    │    └─Sequential: 3-138                      --                        (recursive)
│    └─Up: 2-97                                    --                        (recursive)
│    │    └─DoubleConv: 3-113                      --                        (recursive)
│    └─DoubleConv: 2-88                            [32, 1, 20, 20]           --
│    └─DoubleConv: 2-122                           --                        (recursive)
│    │    └─Sequential: 3-104                      [32, 1, 20, 20]           --
│    │    └─Sequential: 3-138                      --                        (recursive)
│    └─Up: 2-97                                    --                        (recursive)
│    │    └─DoubleConv: 3-113                      --                        (recursive)
│    └─DoubleConv: 2-122                           --                        (recursive)
│    │    └─Sequential: 3-138                      --                        (recursive)
│    └─Up: 2-97                                    --                        (recursive)
│    │    └─DoubleConv: 3-113                      --                        (recursive)
│    └─DoubleConv: 2-93                            [32, 1, 20, 20]           --
│    └─DoubleConv: 2-122                           --                        (recursive)
│    │    └─Sequential: 3-109                      [32, 1, 20, 20]           --
│    │    └─Sequential: 3-138                      --                        (recursive)
│    └─Up: 2-97                                    --                        (recursive)
│    │    └─DoubleConv: 3-113                      --                        (recursive)
│    └─DoubleConv: 2-122                           --                        (recursive)
│    │    └─Sequential: 3-138                      --                        (recursive)
│    └─Up: 2-97                                    --                        (recursive)
│    │    └─DoubleConv: 3-113                      --                        (recursive)
│    └─DoubleConv: 2-122                           --                        (recursive)
│    │    └─Sequential: 3-138                      --                        (recursive)
│    └─DoubleConv: 2-99                            [32, 1, 20, 20]           301
│    └─DoubleConv: 2-125                           --                        (recursive)
│    │    └─Sequential: 3-115                      [32, 1, 20, 20]           301
│    │    └─Sequential: 3-141                      --                        (recursive)
│    └─DoubleConv: 2-122                           --                        (recursive)
│    │    └─Sequential: 3-138                      --                        (recursive)
│    └─DoubleConv: 2-125                           --                        (recursive)
│    │    └─Sequential: 3-141                      --                        (recursive)
│    └─DoubleConv: 2-103                           [32, 1, 20, 20]           --
│    └─DoubleConv: 2-125                           --                        (recursive)
│    │    └─Sequential: 3-119                      [32, 1, 20, 20]           --
│    │    └─Sequential: 3-141                      --                        (recursive)
│    └─DoubleConv: 2-105                           [32, 1, 20, 20]           --
│    └─DoubleConv: 2-122                           --                        (recursive)
│    │    └─Sequential: 3-121                      [32, 1, 20, 20]           --
│    │    └─Sequential: 3-138                      --                        (recursive)
│    └─DoubleConv: 2-125                           --                        (recursive)
│    │    └─Sequential: 3-141                      --                        (recursive)
│    └─DoubleConv: 2-122                           --                        (recursive)
│    │    └─Sequential: 3-138                      --                        (recursive)
…
USE_OPENMP=ON, USE_ROCM=OFF, USE_ROCM_KERNEL_ASSERT=OFF, 

TorchVision: 0.19.1
OpenCV: 4.10.0
MMCV: 1.6.2
MMCV Compiler: n/a
MMCV CUDA Compiler: n/a
------------------------------------------------------------

2025-02-02 19:27:31,715 - cloud_retrieval - INFO - ====================================================================================================
Layer (type:depth-idx)                             Output Shape              Param #
====================================================================================================
DataParallel                                       [128, 2, 20, 20]          --
├─CAM: 1-1                                         [32, 2, 20, 20]           468,192
├─CAM: 1-8                                         --                        (recursive)
│    └─DoubleConv: 2-1                             [32, 32, 20, 20]          9,920
│    └─DoubleConv: 2-15                            --                        (recursive)
│    │    └─Sequential: 3-1                        [32, 32, 20, 20]          9,920
│    │    └─Sequential: 3-14                       --                        (recursive)
├─CAM: 1-3                                         [32, 2, 20, 20]           --
├─CAM: 1-8                                         --                        (recursive)
│    └─DoubleConv: 2-3                             [32, 32, 20, 20]          --
│    └─DoubleConv: 2-15                            --                        (recursive)
│    │    └─Sequential: 3-3                        [32, 32, 20, 20]          --
│    │    └─Sequential: 3-14                       --                        (recursive)
├─CAM: 1-5                                         [32, 2, 20, 20]           --
├─CAM: 1-8                                         --                        (recursive)
│    └─DoubleConv: 2-5                             [32, 32, 20, 20]          --
│    └─DoubleConv: 2-15                            --                        (recursive)
│    │    └─Sequential: 3-5                        [32, 32, 20, 20]          --
│    │    └─Sequential: 3-14                       --                        (recursive)
├─CAM: 1-7                                         [32, 2, 20, 20]           --
├─CAM: 1-8                                         --                        (recursive)
│    └─DoubleConv: 2-7                             [32, 32, 20, 20]          --
│    └─DoubleConv: 2-15                            --                        (recursive)
│    │    └─Sequential: 3-7                        [32, 32, 20, 20]          --
│    │    └─Sequential: 3-14                       --                        (recursive)
│    └─CBAM: 2-9                                   [32, 32, 20, 20]          162
│    └─CBAM: 2-29                                  --                        (recursive)
│    │    └─ChannelGate: 3-9                       [32, 32, 20, 20]          162
│    └─DoubleConv: 2-15                            --                        (recursive)
│    │    └─Sequential: 3-14                       --                        (recursive)
│    └─CBAM: 2-29                                  --                        (recursive)
│    │    └─ChannelGate: 3-28                      --                        (recursive)
│    └─DoubleConv: 2-15                            --                        (recursive)
│    │    └─Sequential: 3-14                       --                        (recursive)
│    └─CBAM: 2-29                                  --                        (recursive)
│    │    └─ChannelGate: 3-28                      --                        (recursive)
│    └─DoubleConv: 2-15                            --                        (recursive)
│    │    └─Sequential: 3-14                       --                        (recursive)
│    └─CBAM: 2-29                                  --                        (recursive)
│    │    └─ChannelGate: 3-28                      --                        (recursive)
│    └─CBAM: 2-17                                  [32, 32, 20, 20]          --
│    └─CBAM: 2-29                                  --                        (recursive)
│    │    └─ChannelGate: 3-16                      [32, 32, 20, 20]          --
│    │    └─ChannelGate: 3-28                      --                        (recursive)
│    └─CBAM: 2-19                                  [32, 32, 20, 20]          --
│    └─CBAM: 2-29                                  --                        (recursive)
│    │    └─ChannelGate: 3-18                      [32, 32, 20, 20]          --
│    │    └─ChannelGate: 3-28                      --                        (recursive)
│    └─CBAM: 2-21                                  [32, 32, 20, 20]          --
│    └─CBAM: 2-29                                  --                        (recursive)
│    │    └─ChannelGate: 3-20                      [32, 32, 20, 20]          --
│    │    └─ChannelGate: 3-28                      --                        (recursive)
│    └─Down: 2-23                                  [32, 64, 10, 10]          55,552
│    └─Down: 2-34                                  --                        (recursive)
│    │    └─Sequential: 3-22                       [32, 64, 10, 10]          55,552
│    │    └─Sequential: 3-33                       --                        (recursive)
│    └─CBAM: 2-29                                  --                        (recursive)
│    │    └─ChannelGate: 3-28                      --                        (recursive)
│    └─Down: 2-34                                  --                        (recursive)
│    │    └─Sequential: 3-33                       --                        (recursive)
│    └─Down: 2-27                                  [32, 64, 10, 10]          --
│    └─Down: 2-34                                  --                        (recursive)
│    │    └─Sequential: 3-26                       [32, 64, 10, 10]          --
│    │    └─Sequential: 3-33                       --                        (recursive)
│    └─CBAM: 2-29                                  --                        (recursive)
│    │    └─ChannelGate: 3-28                      --                        (recursive)
│    └─Down: 2-34                                  --                        (recursive)
│    │    └─Sequential: 3-33                       --                        (recursive)
│    └─Down: 2-31                                  [32, 64, 10, 10]          --
│    └─Down: 2-34                                  --                        (recursive)
│    │    └─Sequential: 3-30                       [32, 64, 10, 10]          --
│    │    └─Sequential: 3-33                       --                        (recursive)
│    └─Down: 2-33                                  [32, 64, 10, 10]          --
│    └─Down: 2-34                                  --                        (recursive)
│    │    └─Sequential: 3-32                       [32, 64, 10, 10]          --
│    │    └─Sequential: 3-33                       --                        (recursive)
│    └─CBAM: 2-35                                  [32, 64, 10, 10]          580
│    └─CBAM: 2-42                                  --                        (recursive)
│    │    └─ChannelGate: 3-34                      [32, 64, 10, 10]          580
│    └─CBAM: 2-37                                  [32, 64, 10, 10]          --
│    └─CBAM: 2-42                                  --                        (recursive)
│    │    └─ChannelGate: 3-35                      [32, 64, 10, 10]          --
│    │    └─ChannelGate: 3-40                      --                        (recursive)
│    └─CBAM: 2-39                                  [32, 64, 10, 10]          --
│    └─CBAM: 2-42                                  --                        (recursive)
│    │    └─ChannelGate: 3-37                      [32, 64, 10, 10]          --
│    │    └─ChannelGate: 3-40                      --                        (recursive)
│    └─CBAM: 2-41                                  [32, 64, 10, 10]          --
│    └─CBAM: 2-42                                  --                        (recursive)
│    │    └─ChannelGate: 3-39                      [32, 64, 10, 10]          --
│    │    └─ChannelGate: 3-40                      --                        (recursive)
│    └─Down: 2-43                                  [32, 128, 5, 5]           --
│    └─Down: 2-59                                  --                        (recursive)
│    │    └─Sequential: 3-41                       [32, 128, 5, 5]           --
│    │    └─Sequential: 3-57                       --                        (recursive)
│    └─Down: 2-45                                  [32, 128, 5, 5]           --
│    └─Down: 2-59                                  --                        (recursive)
│    │    └─Sequential: 3-43                       [32, 128, 5, 5]           --
│    │    └─Sequential: 3-57                       --                        (recursive)
│    └─Down: 2-47                                  [32, 128, 5, 5]           221,696
│    └─Down: 2-59                                  --                        (recursive)
│    │    └─Sequential: 3-45                       [32, 128, 5, 5]           221,696
│    │    └─Sequential: 3-57                       --                        (recursive)
│    └─Down: 2-49                                  [32, 128, 5, 5]           --
│    └─Down: 2-59                                  --                        (recursive)
│    │    └─Sequential: 3-47                       [32, 128, 5, 5]           --
│    │    └─Sequential: 3-57                       --                        (recursive)
│    └─Up: 2-51                                    [32, 64, 10, 10]          --
│    └─Up: 2-78                                    --                        (recursive)
│    │    └─ConvTranspose2d: 3-49                  [32, 64, 10, 10]          --
│    └─Down: 2-59                                  --                        (recursive)
│    │    └─Sequential: 3-57                       --                        (recursive)
│    └─Up: 2-78                                    --                        (recursive)
│    │    └─Dropout: 3-51                          [32, 64, 10, 10]          --
│    └─Up: 2-55                                    [32, 64, 10, 10]          --
│    └─Up: 2-78                                    --                        (recursive)
│    │    └─ConvTranspose2d: 3-52                  [32, 64, 10, 10]          --
│    │    └─DoubleConv: 3-53                       [32, 64, 10, 10]          --
│    │    └─DoubleConv: 3-87                       --                        (recursive)
│    └─Down: 2-59                                  --                        (recursive)
│    │    └─Sequential: 3-57                       --                        (recursive)
│    └─Up: 2-78                                    --                        (recursive)
│    │    └─Dropout: 3-56                          [32, 64, 10, 10]          --
│    └─Down: 2-59                                  --                        (recursive)
│    │    └─Sequential: 3-57                       --                        (recursive)
│    └─Up: 2-78                                    --                        (recursive)
│    │    └─DoubleConv: 3-58                       [32, 64, 10, 10]          --
│    │    └─DoubleConv: 3-87                       --                        (recursive)
│    └─Up: 2-61                                    [32, 64, 10, 10]          143,680
│    └─Up: 2-78                                    --                        (recursive)
│    │    └─ConvTranspose2d: 3-60                  [32, 64, 10, 10]          32,832
│    │    └─DoubleConv: 3-87                       --                        (recursive)
│    └─Up: 2-63                                    [32, 64, 10, 10]          --
│    └─Up: 2-78                                    --                        (recursive)
│    │    └─ConvTranspose2d: 3-62                  [32, 64, 10, 10]          --
│    │    └─Dropout: 3-63                          [32, 64, 10, 10]          --
│    │    └─DoubleConv: 3-87                       --                        (recursive)
│    │    └─Dropout: 3-65                          [32, 64, 10, 10]          --
│    │    └─DoubleConv: 3-66                       [32, 64, 10, 10]          110,848
│    │    └─DoubleConv: 3-87                       --                        (recursive)
│    │    └─DoubleConv: 3-68                       [32, 64, 10, 10]          --
│    │    └─DoubleConv: 3-87                       --                        (recursive)
│    └─Up: 2-65                                    [32, 32, 20, 20]          --
│    └─Up: 2-93                                    --                        (recursive)
│    │    └─ConvTranspose2d: 3-70                  [32, 32, 20, 20]          --
│    └─Up: 2-78                                    --                        (recursive)
│    │    └─DoubleConv: 3-87                       --                        (recursive)
│    └─Up: 2-93                                    --                        (recursive)
│    │    └─Dropout: 3-72                          [32, 32, 20, 20]          --
│    └─Up: 2-78                                    --                        (recursive)
│    │    └─DoubleConv: 3-87                       --                        (recursive)
│    └─Up: 2-93                                    --                        (recursive)
│    │    └─DoubleConv: 3-74                       [32, 32, 20, 20]          --
│    │    └─DoubleConv: 3-106                      --                        (recursive)
│    └─Up: 2-78                                    --                        (recursive)
│    │    └─DoubleConv: 3-87                       --                        (recursive)
│    └─Up: 2-72                                    [32, 32, 20, 20]          --
│    └─Up: 2-93                                    --                        (recursive)
│    │    └─ConvTranspose2d: 3-77                  [32, 32, 20, 20]          --
│    └─Up: 2-74                                    [32, 32, 20, 20]          36,000
│    └─Up: 2-93                                    --                        (recursive)
│    │    └─ConvTranspose2d: 3-78                  [32, 32, 20, 20]          8,224
│    │    └─Dropout: 3-79                          [32, 32, 20, 20]          --
│    │    └─DoubleConv: 3-80                       [32, 32, 20, 20]          --
│    │    └─DoubleConv: 3-106                      --                        (recursive)
│    │    └─Dropout: 3-82                          [32, 32, 20, 20]          --
│    └─Up: 2-78                                    --                        (recursive)
│    │    └─DoubleConv: 3-87                       --                        (recursive)
│    └─Up: 2-93                                    --                        (recursive)
│    │    └─DoubleConv: 3-106                      --                        (recursive)
│    │    └─DoubleConv: 3-85                       [32, 32, 20, 20]          27,776
│    │    └─DoubleConv: 3-106                      --                        (recursive)
│    └─Up: 2-78                                    --                        (recursive)
│    │    └─DoubleConv: 3-87                       --                        (recursive)
│    └─Up: 2-93                                    --                        (recursive)
│    │    └─DoubleConv: 3-106                      --                        (recursive)
│    └─Up: 2-80                                    [32, 32, 20, 20]          --
│    └─Up: 2-93                                    --                        (recursive)
│    │    └─ConvTranspose2d: 3-89                  [32, 32, 20, 20]          --
│    │    └─DoubleConv: 3-106                      --                        (recursive)
│    │    └─Dropout: 3-91                          [32, 32, 20, 20]          --
│    │    └─DoubleConv: 3-106                      --                        (recursive)
│    │    └─DoubleConv: 3-93                       [32, 32, 20, 20]          --
│    │    └─DoubleConv: 3-106                      --                        (recursive)
│    └─DoubleConv: 2-82                            [32, 1, 20, 20]           --
│    └─DoubleConv: 2-113                           --                        (recursive)
│    │    └─Sequential: 3-95                       [32, 1, 20, 20]           --
│    │    └─Sequential: 3-126                      --                        (recursive)
│    └─Up: 2-93                                    --                        (recursive)
│    │    └─DoubleConv: 3-106                      --                        (recursive)
│    └─DoubleConv: 2-85                            [32, 1, 20, 20]           301
│    └─DoubleConv: 2-113                           --                        (recursive)
│    │    └─Sequential: 3-98                       [32, 1, 20, 20]           301
│    │    └─Sequential: 3-126                      --                        (recursive)
│    └─Up: 2-93                                    --                        (recursive)
│    │    └─DoubleConv: 3-106                      --                        (recursive)
│    └─DoubleConv: 2-113                           --                        (recursive)
│    │    └─Sequential: 3-126                      --                        (recursive)
│    └─DoubleConv: 2-89                            [32, 1, 20, 20]           --
│    └─DoubleConv: 2-113                           --                        (recursive)
│    │    └─Sequential: 3-102                      [32, 1, 20, 20]           --
│    │    └─Sequential: 3-126                      --                        (recursive)
│    └─Up: 2-93                                    --                        (recursive)
│    │    └─DoubleConv: 3-106                      --                        (recursive)
│    └─DoubleConv: 2-113                           --                        (recursive)
│    │    └─Sequential: 3-126                      --                        (recursive)
│    └─Up: 2-93                                    --                        (recursive)
│    │    └─DoubleConv: 3-106                      --                        (recursive)
│    └─DoubleConv: 2-113                           --                        (recursive)
│    │    └─Sequential: 3-126                      --                        (recursive)
│    └─DoubleConv: 2-95                            [32, 1, 20, 20]           --
│    └─DoubleConv: 2-113                           --                        (recursive)
│    │    └─Sequential: 3-108                      [32, 1, 20, 20]           --
│    │    └─Sequential: 3-126                      --                        (recursive)
│    └─DoubleConv: 2-97                            [32, 1, 20, 20]           --
│    └─DoubleConv: 2-116                           --                        (recursive)
│    │    └─Sequential: 3-110                      [32, 1, 20, 20]           --
│    │    └─Sequential: 3-129                      --                        (recursive)
│    └─DoubleConv: 2-113                           --                        (recursive)
│    │    └─Sequential: 3-126                      --                        (recursive)
│    └─DoubleConv: 2-100                           [32, 1, 20, 20]           301
│    └─DoubleConv: 2-116                           --                        (recursive)
│    │    └─Sequential: 3-113                      [32, 1, 20, 20]           301
│    │    └─Sequential: 3-129                      --                        (recursive)
│    └─DoubleConv: 2-113                           --                        (recursive)
│    │    └─Sequential: 3-126                      --                        (recursive)
│    └─DoubleConv: 2-116                           --                        (recursive)
│    │    └─Sequential: 3-129                      --                        (recursive)
…
