…
USE_OPENMP=ON, USE_ROCM=OFF, USE_ROCM_KERNEL_ASSERT=OFF, 

TorchVision: 0.19.1
OpenCV: 4.10.0
MMCV: 1.6.2
MMCV Compiler: n/a
MMCV CUDA Compiler: n/a
------------------------------------------------------------

2025-02-02 19:21:49,318 - cloud_retrieval - INFO - ====================================================================================================
Layer (type:depth-idx)                             Output Shape              Param #
====================================================================================================
DataParallel                                       [128, 2, 20, 20]          --
├─CAM: 1-1                                         [32, 2, 20, 20]           468,192
├─CAM: 1-8                                         --                        (recursive)
│    └─DoubleConv: 2-1                             [32, 32, 20, 20]          9,920
│    └─DoubleConv: 2-11                            --                        (recursive)
│    │    └─Sequential: 3-1                        [32, 32, 20, 20]          9,920
│    │    └─Sequential: 3-10                       --                        (recursive)
├─CAM: 1-3                                         [32, 2, 20, 20]           --
├─CAM: 1-8                                         --                        (recursive)
│    └─DoubleConv: 2-3                             [32, 32, 20, 20]          --
│    └─DoubleConv: 2-11                            --                        (recursive)
│    │    └─Sequential: 3-3                        [32, 32, 20, 20]          --
│    │    └─Sequential: 3-10                       --                        (recursive)
├─CAM: 1-5                                         [32, 2, 20, 20]           --
├─CAM: 1-8                                         --                        (recursive)
│    └─DoubleConv: 2-5                             [32, 32, 20, 20]          --
│    └─DoubleConv: 2-11                            --                        (recursive)
│    │    └─Sequential: 3-5                        [32, 32, 20, 20]          --
│    │    └─Sequential: 3-10                       --                        (recursive)
├─CAM: 1-7                                         [32, 2, 20, 20]           --
├─CAM: 1-8                                         --                        (recursive)
│    └─DoubleConv: 2-7                             [32, 32, 20, 20]          --
│    └─DoubleConv: 2-11                            --                        (recursive)
│    │    └─Sequential: 3-7                        [32, 32, 20, 20]          --
│    │    └─Sequential: 3-10                       --                        (recursive)
│    └─CBAM: 2-9                                   [32, 32, 20, 20]          --
│    └─CBAM: 2-17                                  --                        (recursive)
│    │    └─ChannelGate: 3-9                       [32, 32, 20, 20]          --
│    └─DoubleConv: 2-11                            --                        (recursive)
│    │    └─Sequential: 3-10                       --                        (recursive)
│    └─CBAM: 2-12                                  [32, 32, 20, 20]          --
│    └─CBAM: 2-17                                  --                        (recursive)
│    │    └─ChannelGate: 3-11                      [32, 32, 20, 20]          --
│    └─CBAM: 2-14                                  [32, 32, 20, 20]          --
│    └─CBAM: 2-17                                  --                        (recursive)
│    │    └─ChannelGate: 3-12                      [32, 32, 20, 20]          --
│    └─CBAM: 2-16                                  [32, 32, 20, 20]          162
│    └─CBAM: 2-17                                  --                        (recursive)
│    │    └─ChannelGate: 3-13                      [32, 32, 20, 20]          162
│    │    └─ChannelGate: 3-14                      --                        162
│    └─Down: 2-18                                  [32, 64, 10, 10]          --
│    └─Down: 2-25                                  --                        (recursive)
│    │    └─Sequential: 3-15                       [32, 64, 10, 10]          --
│    │    └─Sequential: 3-22                       --                        (recursive)
│    └─Down: 2-20                                  [32, 64, 10, 10]          55,552
│    └─Down: 2-25                                  --                        (recursive)
│    │    └─Sequential: 3-17                       [32, 64, 10, 10]          55,552
│    │    └─Sequential: 3-22                       --                        (recursive)
│    └─Down: 2-22                                  [32, 64, 10, 10]          --
│    └─Down: 2-25                                  --                        (recursive)
│    │    └─Sequential: 3-19                       [32, 64, 10, 10]          --
│    │    └─Sequential: 3-22                       --                        (recursive)
│    └─Down: 2-24                                  [32, 64, 10, 10]          --
│    └─Down: 2-25                                  --                        (recursive)
│    │    └─Sequential: 3-21                       [32, 64, 10, 10]          --
│    │    └─Sequential: 3-22                       --                        (recursive)
│    └─CBAM: 2-26                                  [32, 64, 10, 10]          --
│    └─CBAM: 2-33                                  --                        (recursive)
│    │    └─ChannelGate: 3-23                      [32, 64, 10, 10]          --
│    └─CBAM: 2-28                                  [32, 64, 10, 10]          --
│    └─CBAM: 2-33                                  --                        (recursive)
│    │    └─ChannelGate: 3-24                      [32, 64, 10, 10]          --
│    │    └─ChannelGate: 3-29                      --                        (recursive)
│    └─CBAM: 2-30                                  [32, 64, 10, 10]          580
│    └─CBAM: 2-33                                  --                        (recursive)
│    │    └─ChannelGate: 3-26                      [32, 64, 10, 10]          580
│    │    └─ChannelGate: 3-29                      --                        (recursive)
│    └─CBAM: 2-32                                  [32, 64, 10, 10]          --
│    └─CBAM: 2-33                                  --                        (recursive)
│    │    └─ChannelGate: 3-28                      [32, 64, 10, 10]          --
│    │    └─ChannelGate: 3-29                      --                        (recursive)
│    └─Down: 2-34                                  [32, 128, 5, 5]           --
│    └─Down: 2-49                                  --                        (recursive)
│    │    └─Sequential: 3-30                       [32, 128, 5, 5]           --
│    │    └─Sequential: 3-42                       --                        (recursive)
│    └─Down: 2-36                                  [32, 128, 5, 5]           --
│    └─Down: 2-49                                  --                        (recursive)
│    │    └─Sequential: 3-32                       [32, 128, 5, 5]           --
│    │    └─Sequential: 3-42                       --                        (recursive)
│    └─Down: 2-38                                  [32, 128, 5, 5]           --
│    └─Down: 2-49                                  --                        (recursive)
│    │    └─Sequential: 3-34                       [32, 128, 5, 5]           --
│    │    └─Sequential: 3-42                       --                        (recursive)
│    └─Down: 2-40                                  [32, 128, 5, 5]           221,696
│    └─Down: 2-49                                  --                        (recursive)
│    │    └─Sequential: 3-36                       [32, 128, 5, 5]           221,696
│    │    └─Sequential: 3-42                       --                        (recursive)
│    └─Up: 2-42                                    [32, 64, 10, 10]          --
│    └─Up: 2-56                                    --                        (recursive)
│    │    └─ConvTranspose2d: 3-38                  [32, 64, 10, 10]          --
│    └─Down: 2-49                                  --                        (recursive)
│    │    └─Sequential: 3-42                       --                        (recursive)
│    └─Up: 2-45                                    [32, 64, 10, 10]          --
│    └─Up: 2-56                                    --                        (recursive)
│    │    └─ConvTranspose2d: 3-40                  [32, 64, 10, 10]          --
│    └─Up: 2-47                                    [32, 64, 10, 10]          --
│    └─Up: 2-56                                    --                        (recursive)
│    │    └─ConvTranspose2d: 3-41                  [32, 64, 10, 10]          --
│    └─Down: 2-49                                  --                        (recursive)
│    │    └─Sequential: 3-42                       --                        (recursive)
│    └─Up: 2-50                                    [32, 64, 10, 10]          143,680
│    └─Up: 2-56                                    --                        (recursive)
│    │    └─ConvTranspose2d: 3-43                  [32, 64, 10, 10]          32,832
│    │    └─Dropout: 3-44                          [32, 64, 10, 10]          --
│    │    └─Dropout: 3-45                          [32, 64, 10, 10]          --
│    │    └─Dropout: 3-46                          [32, 64, 10, 10]          --
│    │    └─Dropout: 3-47                          [32, 64, 10, 10]          --
│    │    └─DoubleConv: 3-48                       [32, 64, 10, 10]          110,848
│    │    └─DoubleConv: 3-61                       --                        (recursive)
│    │    └─DoubleConv: 3-50                       [32, 64, 10, 10]          --
│    │    └─DoubleConv: 3-61                       --                        (recursive)
│    │    └─DoubleConv: 3-52                       [32, 64, 10, 10]          --
│    │    └─DoubleConv: 3-61                       --                        (recursive)
│    │    └─DoubleConv: 3-54                       [32, 64, 10, 10]          --
│    │    └─DoubleConv: 3-61                       --                        (recursive)
│    └─Up: 2-52                                    [32, 32, 20, 20]          36,000
│    └─Up: 2-71                                    --                        (recursive)
│    │    └─ConvTranspose2d: 3-56                  [32, 32, 20, 20]          8,224
│    │    └─Dropout: 3-57                          [32, 32, 20, 20]          --
│    └─Up: 2-56                                    --                        (recursive)
│    │    └─DoubleConv: 3-61                       --                        (recursive)
│    └─Up: 2-71                                    --                        (recursive)
│    │    └─DoubleConv: 3-59                       [32, 32, 20, 20]          27,776
│    │    └─DoubleConv: 3-86                       --                        (recursive)
│    └─Up: 2-56                                    --                        (recursive)
│    │    └─DoubleConv: 3-61                       --                        (recursive)
│    └─Up: 2-57                                    [32, 32, 20, 20]          --
│    └─Up: 2-71                                    --                        (recursive)
│    │    └─ConvTranspose2d: 3-62                  [32, 32, 20, 20]          --
│    │    └─DoubleConv: 3-86                       --                        (recursive)
│    │    └─Dropout: 3-64                          [32, 32, 20, 20]          --
│    └─Up: 2-59                                    [32, 32, 20, 20]          --
│    └─Up: 2-71                                    --                        (recursive)
│    │    └─ConvTranspose2d: 3-65                  [32, 32, 20, 20]          --
│    │    └─DoubleConv: 3-86                       --                        (recursive)
│    │    └─DoubleConv: 3-67                       [32, 32, 20, 20]          --
│    │    └─DoubleConv: 3-86                       --                        (recursive)
│    │    └─Dropout: 3-69                          [32, 32, 20, 20]          --
│    │    └─DoubleConv: 3-86                       --                        (recursive)
│    └─Up: 2-61                                    [32, 32, 20, 20]          --
│    └─Up: 2-71                                    --                        (recursive)
│    │    └─ConvTranspose2d: 3-71                  [32, 32, 20, 20]          --
│    │    └─DoubleConv: 3-86                       --                        (recursive)
│    │    └─DoubleConv: 3-73                       [32, 32, 20, 20]          --
│    │    └─DoubleConv: 3-86                       --                        (recursive)
│    │    └─Dropout: 3-75                          [32, 32, 20, 20]          --
│    │    └─DoubleConv: 3-76                       [32, 32, 20, 20]          --
│    │    └─DoubleConv: 3-86                       --                        (recursive)
│    └─DoubleConv: 2-63                            [32, 1, 20, 20]           301
│    └─DoubleConv: 2-76                            --                        (recursive)
│    │    └─Sequential: 3-78                       [32, 1, 20, 20]           301
│    │    └─Sequential: 3-91                       --                        (recursive)
│    └─Up: 2-71                                    --                        (recursive)
│    │    └─DoubleConv: 3-86                       --                        (recursive)
│    └─DoubleConv: 2-66                            [32, 1, 20, 20]           --
│    └─DoubleConv: 2-76                            --                        (recursive)
│    │    └─Sequential: 3-81                       [32, 1, 20, 20]           --
│    │    └─Sequential: 3-91                       --                        (recursive)
│    └─Up: 2-71                                    --                        (recursive)
│    │    └─DoubleConv: 3-86                       --                        (recursive)
│    └─DoubleConv: 2-69                            [32, 1, 20, 20]           --
│    └─DoubleConv: 2-76                            --                        (recursive)
│    │    └─Sequential: 3-84                       [32, 1, 20, 20]           --
│    │    └─Sequential: 3-91                       --                        (recursive)
│    └─Up: 2-71                                    --                        (recursive)
│    │    └─DoubleConv: 3-86                       --                        (recursive)
│    └─DoubleConv: 2-72                            [32, 1, 20, 20]           --
│    └─DoubleConv: 2-76                            --                        (recursive)
│    │    └─Sequential: 3-87                       [32, 1, 20, 20]           --
│    │    └─Sequential: 3-91                       --                        (recursive)
│    └─DoubleConv: 2-74                            [32, 1, 20, 20]           --
│    └─DoubleConv: 2-82                            --                        (recursive)
│    │    └─Sequential: 3-89                       [32, 1, 20, 20]           --
│    │    └─Sequential: 3-97                       --                        (recursive)
│    └─DoubleConv: 2-76                            --                        (recursive)
│    │    └─Sequential: 3-91                       --                        (recursive)
│    └─DoubleConv: 2-77                            [32, 1, 20, 20]           --
│    └─DoubleConv: 2-82                            --                        (recursive)
│    │    └─Sequential: 3-92                       [32, 1, 20, 20]           --
│    │    └─Sequential: 3-97                       --                        (recursive)
│    └─DoubleConv: 2-79                            [32, 1, 20, 20]           301
│    └─DoubleConv: 2-82                            --                        (recursive)
│    │    └─Sequential: 3-94                       [32, 1, 20, 20]           301
│    │    └─Sequential: 3-97                       --                        (recursive)
│    └─DoubleConv: 2-81                            [32, 1, 20, 20]           --
│    └─DoubleConv: 2-82                            --                        (recursive)
│    │    └─Sequential: 3-96                       [32, 1, 20, 20]           --
│    │    └─Sequential: 3-97                       --                        (recursive)
====================================================================================================
Total params: 2,525,574
Trainable params: 2,525,574
Non-trainable params: 0
Total mult-adds (Units.GIGABYTES): 1.41
====================================================================================================
…
